model/model.pth (torch, 46657 bytes, 8 tensors)

weight f4 [20, 1]
-0.53390807 -0.4153733 -0.87523186 0.7173453 0.53780323 0.35733995 0.0074387076 -0.0069470936
0.5585824 0.14245768 0.4228212 0.081614755 -0.9129866 0.054646943 0.4492227 -0.5043405
-0.6597324 0.6431112 -0.47564456 -0.572765
00000000: 33ae 08bf cfab d4be 320f 60bf f1a3 373f
00000010: 79ad 093f 43f5 b63e 67c0 f33b 72a4 e3bb
00000020: 42ff 0e3f 6de0 113e 057c d83e a325 a73d
00000030: 7db9 69bf 79d5 5f3d 8500 e63e 761c 01bf
00000040: 39e4 28bf f0a2 243f af87 f3be baa0 12bf

bias f4 [20]
0.837137 0.37374282 0.5539377 0.16609702 -0.29905552 -0.058566142 0.0046919086 -0.007294834
-0.4628499 0.21808542 -0.5864975 0.2954714 0.9031382 -0.25974742 -0.33094922 -0.5740374
0.6928202 0.22462909 0.41334873 0.60357267
00000000: 9c4e 563f 385b bf3e dcce 0d3f 5615 2a3e
00000010: ce1d 99be 0de3 6fbd 95be 993b 8109 efbb
00000020: a9fa ecbe c951 5f3e b324 16bf 0748 973e
00000030: 1134 673f 9dfd 84be 2d72 a9be 1df4 12bf
00000040: aa5c 313f 2b05 663e 72a2 d33e bd83 1a3f

weight_ih_l0 f4 [160, 23]
-0.15133548 -0.010071512 0.15212291 -0.22003004 -0.1268235 -0.2197958 0.102049895 -0.05164563
0.1932678 -0.27096906 0.20963185 -0.115818806 -0.07509498 0.24914193 0.059031177 0.26497692
-0.044942643 -0.24662814 -0.13851501 0.10200968 -0.50701153 0.28432173 -0.18674242 -0.13499889
0.04943528 0.12261092 -0.23405026 -0.05090633 -0.27329007 0.03548956 -0.08790993 0.14049236
-0.053806093 0.12573399 -0.027755508 -0.17866884 0.061861318 0.13828202 -0.08323909 0.08986495
-0.07778657 -0.12295878 0.0440076 -0.36993554 0.18022016 -0.23215176 0.16328447 -0.12604438
-0.18527898 0.066493236 0.19004291 0.13169633 0.11290675 -0.23642595 0.10085082 0.18732683
-0.14695819 -0.024437653 0.16182014 -0.3040362 0.040719997 -0.06131795 0.070790485 -0.044918727
-0.11941695 0.03552063 -0.0026898999 0.11115653 0.0056943316 0.03405212 0.08925046 0.05793353
0.16357192 0.11561852 -0.09593606 0.08608419 0.028543549 -0.07063104 0.007536079 0.015725542
0.20941621 -0.04848166 -0.013308737 0.1314079 -0.08710118 -0.07268572 0.18267567 0.016020695
-0.17077135 0.24910788 -0.005354684 -0.2229598 -0.45173725 -0.7211172 -1.1992122 1.5783961
1.2106893 3.7063096 0.64794445 -0.2250505 1.0423398 0.27033582 0.41599366 0.22556134
-0.58126885 0.046857726 1.1865096 -0.42231047 -0.6849524 1.2891135 -1.0705615 -0.7410068
-0.17115252 0.020706888 -0.0890839 -0.26006114 -0.21238066 -0.226875 -0.09158888 0.14338805
-0.09769945 -0.18389854 0.25419682 0.095100775 -0.35989487 0.110789865 -0.14912501 -0.18611707
0.10942733 -0.027507132 0.24157771 -0.15013507 -0.298404 -0.03257101 -0.2328836 0.17700762
0.0024013745 0.086010806 -0.24313952 -0.02009212 -0.15791832 -0.0704498 -0.13726069 -0.22838753
-0.23124358 -0.1714304 0.20186776 -0.124986075 0.24243927 -0.14918974 -0.14489257 -0.020734364
0.110717595 -0.058041766 -0.030520214 -0.2516571 0.02863786 -0.09169336 0.7552208 -0.09730314
0.09747098 -0.43020296 -0.079270154 -0.13507265 -0.36350882 0.08066333 -0.36721802 -0.31880242
0.29282874 0.2665046 -0.4502434 0.23088388 -0.55493677 -0.19576189 0.5214533 0.17753941
0.42339626 -0.37372366 -0.23813362 0.0005245147 -0.39809415 0.055631112 -0.28224602 0.008027936
-0.0368704 0.07308458 -0.12043142 -0.12911801 -0.0017974384 -0.039158545 -0.019800665 0.06841606
0.13726713 -0.017975189 -0.14241503 0.06251729 -0.21003014 0.14588842 -0.10418288 0.123255484
0.05558357 -0.025512904 0.035299998 -0.20472273 -0.116562694 -0.09053597 -0.12873808 -0.18907633
-0.2673254 -0.13205585 -0.3761493 -0.050503418 -0.23630926 -0.05818056 0.20213085 -0.0034801604
-0.21628635 0.30415562 -0.3407861 -0.19987804 0.2032626 0.0839618 0.19063166 -0.2698463
-0.2482825 -0.19900535 -0.24377333 -0.34941357 0.05929169 0.079128124 -0.56808704 -0.093700565
-0.07868732 -0.4359664 -0.16564994 -0.42646822 -0.39089444 0.35916 0.24605806 -0.55299854
0.54322106 -0.58341336 -0.3743124 0.65803444 -0.055840105 0.688596 -0.13271719 -0.59654653
-0.26121643 -0.27858108 -0.18895702 0.011520982 -0.025161486 -0.0023163012 0.018419253 -0.0811204
00000000: b0f7 1abe fc02 25bc 1cc6 1b3e 8e4f 61be
00000010: 05de 01be 2612 61be 89ff d03d 5e8a 53bd
00000020: ffe7 453e 75bc 8abe bba9 563e 6932 edbd
00000030: 66cb 99bd 101f 7f3e adca 713d 0eab 873e
00000040: c715 38bd 168c 7cbe e1d6 0dbe 73ea d03d
00000050: 82cb 01bf 9e92 913e 6839 3fbe 263d 0abe
00000060: a67c 4a3d 6f1b fb3d dfaa 6fbe 2883 50bd
00000070: adec 8bbe 805d 113d 1f0a b4bd 3bdd 0f3e
00000080: c763 5cbd 69c0 003e 855f e3bc f7f4 36be
00000090: 4b62 7d3d cd99 0d3e 4279 aabd 1d0b b83d
000000a0: 914e 9fbd d0d1 fbbd 5041 343d 3168 bdbe
000000b0: a28b 383e 31b9 6dbe 0b34 273e c711 01be
000000c0: c6b9 3dbe 9b2d 883d 9c9a 423e 67db 063e
000000d0: a73b e73d a519 72be e08a ce3d 9bd2 3f3e
000000e0: 357c 16be 7931 c8bc 2eb4 253e a2aa 9bbe
000000f0: 03ca 263d 8828 7bbd 9afa 903d b3fc 37bd
00000100: e090 f4bd 157e 113d 0849 30bb 09a6 e33d
00000110: 8497 ba3b 3c7a 0b3d f2c8 b63d b64b 6d3d
00000120: 667f 273e 67c9 ec3d 207a c4bd e84c b03d
00000130: 29d4 e93c 02a7 90bd 36f1 f63b dad2 803c
00000140: 3471 563e b594 46bd e40c 5abc cb8f 063e
00000150: 1a62 b2bd 40dc 94bd 550f 3b3e d53d 833c
00000160: afde 2ebe 2316 7f3e 5876 afbb 934f 64be
00000170: 1b4a e7be 239b 38bf c97f 99bf e208 ca3f
00000180: def7 9a3f 2d34 6d40 b0df 253f a373 66be
00000190: 646b 853f 7569 8a3e 1ffd d43e 8df9 663e
000001a0: 09ce 14bf e3ed 3f3d 8cdf 973f 1439 d8be
000001b0: 0a59 2fbf ac01 a53f 2908 89bf 9fb2 3dbf
000001c0: 9b42 2fbe 7ea1 a93c 9f71 b6bd bc26 85be
000001d0: 517a 59be ec51 68be f392 bbbd 51d4 123e
000001e0: a616 c8bd e64f 3cbe 1626 823e 32c4 c23d
000001f0: 2444 b8be cce5 e23d 3ab4 18be 7995 3ebe
00000200: 701b e03d a356 e1bc 2660 773e 02bd 19be
00000210: 69c8 98be 2e69 05bd 0a79 6ebe 7c41 353e
00000220: 6160 1d3b 6f26 b03d 91f9 78be 3b98 a4bc
00000230: 57b5 21be fc47 90bd 118e 0cbe 6cde 69be
00000240: 1ecb 6cbe 738b 2fbe 6cb6 4e3e b3f8 ffbd
00000250: 0042 783e 32c5 18be b85e 14be 1ddb a9bc
00000260: e8bf e23d 34bd 6dbd 8705 fabc 33d9 80be
00000270: f299 ea3c bac9 bbbd 2656 413f de46 c7bd
00000280: dd9e c73d 9043 dcbe 6458 a2bd 7c50 0abe
00000290: d41d babe d132 a53d 0004 bcbe 123a a3be
000002a0: a6ed 953e 4a73 883e 4e86 e6be d36c 6c3e
000002b0: 5610 0ebf ce75 48be f77d 053f e4cc 353e
000002c0: 65c7 d83e b558 bfbe 4dd9 73be 967f 093a
000002d0: ffd2 cbbe 73dd 633d 8d82 90be 9b87 033c
000002e0: 6b05 17bd 5ead 953d c0a4 f6bd 8337 04be
000002f0: 0698 ebba b664 20bd 0135 a2bc b81d 8c3d
00000300: c18f 0c3e b440 93bc 3fd5 11be 1109 803d
00000310: 2412 57be c663 153e d55d d5bd 5f6d fc3d
00000320: 99ab 633d 7000 d1bc bb96 103d d6a2 51be
00000330: 6cb8 eebd ec6a b9bd ead3 03be 3a9d 41be
00000340: e0de 88be a639 07be a496 c0be acdc 4ebd
00000350: 0efb 71be bd4e 6ebd 64fb 4e3e 6713 64bb
00000360: 2b7a 5dbe 49ba 9b3e 847b aebe d4ac 4cbe
00000370: 1224 503e 2af4 ab3d f234 433e 4b29 8abe
00000380: c53d 7ebe 0fc8 4bbe b79f 79be 56e6 b2be
00000390: d8db 723d ed0d a23d 276e 11bf 15e6 bfbd
000003a0: d126 a1bd fd36 dfbe 23a0 29be 0b5a dabe
000003b0: 5123 c8be d2e3 b73e a5f6 7b3e 5091 0dbf
000003c0: 8910 0b3f 945a 15bf e0a5 bfbe f274 283f
000003d0: 98b8 64bd d447 303f 04e7 07be 46b7 18bf
000003e0: 29be 85be 2ea2 8ebe f37d 41be 80c2 3c3c
000003f0: 761f cebc 16cd 17bb f9e3 963c 7422 a6bd

weight_hh_l0 f4 [160, 40]
0.34511563 0.0463758 0.027600892 -0.046484973 -0.09494467 0.60945284 -0.3444744 -0.02759526
0.063335836 -0.53024375 -0.45389175 -1.1084617 0.1277731 -0.020393636 0.30160716 0.63148826
0.49888983 -0.03468919 0.2213601 0.024541691 -0.95139366 -0.03867349 0.19513805 0.18837763
0.7339553 -0.2144356 0.2444103 -0.5613522 -0.55804497 0.00073641184 -0.058813132 0.41609216
-0.20227358 -0.0853728 0.16244712 0.3967257 -0.74918526 -0.06597528 -0.94555134 0.07379638
-0.59766465 0.4522645 -0.17400235 -0.99814755 0.54769117 0.06709586 -0.9019993 0.40882415
-1.1342621 -0.5665767 0.2613506 -0.19526324 0.5694677 -0.2695618 -0.24007942 -0.14564633
0.61252433 0.20650348 0.5135342 0.5669302 0.39885232 0.049164806 0.18988004 -0.07127485
0.42469743 -0.3553903 -0.06368954 -0.1819947 0.51283324 -0.82146245 -0.6872129 0.3670164
-0.16834117 0.14131233 0.55180746 0.7300692 -0.28830698 0.113430284 0.804331 0.12677918
-0.37679586 -0.047191974 0.38114423 1.2129068 -0.36592594 0.18052047 -0.35203728 0.56063473
0.49643105 0.31495968 -2.3006988 -0.06704827 -0.2383411 0.04027628 0.19240884 -0.03881314
0.035259422 0.14717132 0.22259882 -0.26038983 -0.009699929 0.1490636 -0.57226956 -0.09906233
-0.23328733 -0.4454171 -0.3599351 0.24901815 -0.46305513 1.205267 0.23903023 -0.06033455
-0.21717007 0.11065762 0.39120433 -0.18036024 0.070074305 -0.17489286 -0.098305926 -1.223979
0.5304942 0.442626 -0.1634777 -0.44612712 0.6599464 -0.3720382 -0.06008068 -0.3267022
-0.13558479 -0.8590508 0.13196541 0.9972957 0.26460645 -0.18851937 -0.4638631 0.9694043
0.50306356 0.05078922 -0.31195697 0.1807512 0.16593482 -0.31627616 -0.10041193 0.22491433
-0.11865722 0.20211077 0.2247236 0.47349632 0.4784024 -1.7467054 0.18065768 0.015043548
0.0012891024 0.25048888 -0.2605528 -0.3864975 0.04582052 -0.4225646 0.2033387 0.25448942
0.23766133 -0.0027397117 0.1276447 -0.5480106 -0.5741195 0.423622 -0.05897179 0.42284867
0.77199656 0.0095173465 -0.20831731 0.41088095 -0.28049272 -0.4598214 0.09022825 0.44376346
-0.54533273 0.01672186 0.65285444 -0.12194376 0.011582341 -0.8437937 0.4508419 -0.4856048
0.34662652 -1.2704142 0.05420755 -0.91700685 -0.21581808 0.60589117 -0.27526623 -0.78782094
-0.7039471 -1.2268022 -0.23320222 -0.7364407 0.011803201 -0.16748367 0.59587175 0.046036925
-0.349298 0.0342363 0.16881329 -0.6204757 0.6558549 -0.4667339 0.19282806 -0.15342659
-0.1799999 0.7724144 0.34620303 -0.5938129 0.45593655 -0.43198645 -0.21265404 0.47404525
0.0042425995 -0.2130682 0.44522554 0.21093272 -0.378573 -0.2517301 -0.56585735 0.38141218
0.32676244 -0.40733045 -0.11470088 0.13633142 0.18085471 -0.3129386 0.8182578 -1.284082
0.78981817 -0.0148556335 -0.483807 0.37424767 -0.16722138 -1.09654 1.139414 -0.33920425
-0.24504341 -0.2565524 0.30161288 0.4205228 0.07615982 0.4035879 -0.4014109 1.0512664
0.1071983 -0.23872718 -0.5906023 -0.13830549 0.11227095 0.45684442 0.22535256 -0.21986519
00000000: ffb2 b03e 8df4 3d3d 441b e23c 0767 3ebd
00000010: 5a72 c2bd 1a05 1c3f f35e b0be 740f e2bc
00000020: 38b6 813d 0ebe 07bf 8064 e8be 13e2 8dbf
00000030: f4d6 023e 8e10 a7bc 416c 9a3e 37a9 213f
00000040: 7d6e ff3e 4116 0ebd 39ac 623e a80b c93c
00000050: 898e 73bf 1868 1ebd 45d2 473e 11e6 403e
00000060: 7fe4 3b3f 0295 5bbe b246 7a3e c7b4 0fbf
00000070: 09dc 0ebf c30b 413a 0ae6 70bd 080a d53e
00000080: ce20 4fbe efd7 aebd 8a58 263e a21f cb3e
00000090: 9bca 3fbf 0c1e 87bd a70f 72bf 8e22 973d
000000a0: 8d00 19bf 368f e73e ac2d 32be 9986 7fbf
000000b0: 7d35 0c3f 8e69 893d 6de9 66bf 6651 d13e
000000c0: 802f 91bf 2c0b 11bf bfcf 853e 16f3 47be
000000d0: a3c8 113f 0104 8abe 61d7 75be 5024 15be
000000e0: 65ce 1c3f a675 533e fa76 033f 5622 113f
000000f0: 5f36 cc3e 0961 493d ea6f 423e 8cf8 91bd
00000100: f171 d93e b8f5 b5be a96f 82bd d25c 3abe
00000110: 0a49 033f 5d4b 52bf 2fed 2fbf 93e9 bb3e
00000120: a161 2cbe 2eb4 103e 4143 0d3f d1e5 3a3f
00000130: f99c 93be 234e e83d a3e8 4d3f 67d2 013e
00000140: 63eb c0be 5f4c 41bd 5625 c33e 8840 9b3f
00000150: a55a bbbe 5cda 383e 3b3e b4be c285 0f3f
00000160: 362c fe3e 6542 a13e a63e 13c0 9a50 89bd
00000170: b00f 74be bef8 243d d306 453e 87fa 1ebd
00000180: 2f6c 103d 14b4 163e f2f0 633e d151 85be
00000190: 73ec 1ebc 21a4 183e 4280 12bf 31e1 cabd
000001a0: e0e2 6ebe b60d e4be 6a49 b8be 9dfe 7e3e
000001b0: 9015 edbe 3046 9a3f 57c4 743e 5c21 77bd
000001c0: d561 5ebe 76a0 e23d ef4b c83e 5bb0 38be
000001d0: 1e83 8f3d 1d17 33be 9e54 c9bd 58ab 9cbf
000001e0: 78ce 073f e09f e23e b366 27be c66a e4be
000001f0: 3ff2 283f ca7b bebe 2917 76bd 8345 a7be
00000200: bdd6 0abe c1ea 5bbf f121 073e c54e 7f3f
00000210: 7f7a 873e 390b 41be 777f edbe e12a 783f
00000220: c6c8 003f 5b08 503d d3b8 9fbe d816 393e
00000230: d1ea 293e f3ee a1be c5a4 cdbd f14f 663e
00000240: 8e02 f3bd 20f6 4e3e f21d 663e 1c6e f23e
00000250: 29f1 f43e 0b94 dfbf 54fe 383e 3779 763c
00000260: 19f7 a83a 1440 803e 2d67 85be 00e3 c5be
00000270: 4cae 3b3d 635a d8be 0538 503e 704c 823e
00000280: 7e5d 733e bc8c 33bb 4bb5 023e 6c4a 0cbf
00000290: 7ff9 12bf fce4 d83e 678c 71bd 9f7f d83e
000002a0: 91a1 453f a5ee 1b3c 2251 55be fd5e d23e
000002b0: be9c 8fbe b66d ebbe 97c9 b83d f734 e33e
000002c0: ed9a 0bbf 48fc 883c 7821 273f a6bd f9bd
000002d0: dcc3 3d3c dd02 58bf c0d4 e63e 31a1 f8be
000002e0: 0879 b13e ef9c a2bf bc08 5e3d f6c0 6abf
000002f0: 6aff 5cbe af1b 1b3f b2ef 8cbe a2ae 49bf
00000300: e135 34bf db07 9dbf 90cc 6ebe 6187 3cbf
00000310: 3762 413c d780 2bbe 0d8b 183f 3791 3c3d
00000320: 30d7 b2be 5d3b 0c3d 64dd 2c3e 7fd7 1ebf
00000330: 1be6 273f bff7 eebe b874 453e dc1b 1dbe
00000340: e551 38be f3bc 453f 8641 b13e 1f04 18bf
00000350: 8470 e93e 542d ddbe fbc1 59be 0fb6 f23e
00000360: 8105 8b3b 8d2e 5abe 9af4 e33e bffe 573e
00000370: 52d4 c1be c5e2 80be 07dc 10bf 7548 c33e
00000380: 684d a73e 9e8d d0be 4ce8 eabd 779a 0b3e
00000390: fa31 393e 7d39 a0be 5879 513f cd5c a4bf
000003a0: 8631 4a3f 0b65 73bc 8db5 f7be 649d bf3e
000003b0: 153c 2bbe 6c5b 8cbf 51d8 913f 2eac adbe
000003c0: a9ec 7abe d65a 83be 016d 9a3e c44e d73e
000003d0: aef9 9b3d 13a3 ce3e bb85 cdbe e68f 863f
000003e0: c88a db3d e674 74be b631 17bf f49f 0dbe
000003f0: 50ee e53d 83e7 e93e d2c2 663e 5724 61be

bias_ih_l0 f4 [160]
-0.23238774 -0.07230482 0.1622069 0.14355238 -0.12422078 -0.36605012 -0.08634154 -0.44778338
-0.032920208 -0.38154975 -0.7672149 -0.10675316 0.16285047 -0.0039436193 -0.0477142 -0.34783164
-0.288985 -0.59772766 0.06469422 -0.27275473 0.16842304 0.09555607 -0.07225597 0.29250103
-0.25203714 -0.50695944 -0.028559595 -0.4947168 -0.17775308 -0.76034147 -0.093777865 -0.33816412
0.07749271 0.08803226 -0.22232561 -0.24941888 -0.020117667 -0.12070183 -0.22587422 -0.057710137
0.2194501 0.24939421 0.082033455 -0.22999248 0.021094272 0.4335627 0.38712835 0.58659756
0.0639964 0.17757978 0.7108961 0.2440705 -0.13692303 -0.008738673 0.36168647 0.2263611
-0.03694629 0.43384677 0.04875629 0.6132767 0.057959896 0.28044176 0.040982664 0.16448787
0.25652835 0.33895692 0.056613177 0.81076884 0.26081517 0.4311717 -0.25008196 -0.0223361
0.22383666 0.1799528 0.38126445 0.23597997 0.11191352 0.034598805 -0.19273321 0.14824934
0.011636561 0.007938292 -0.06967105 -0.12734914 0.18828204 -0.13610207 0.061944228 -0.11389216
-0.092173226 -0.07999796 0.102635235 0.048269037 -0.22450967 -0.06892128 -0.158257 -0.26797363
0.2986151 -0.0037433286 -0.07066915 -0.11559858 0.11475394 -0.2493098 0.102707826 0.11807348
-0.07814183 -0.013686314 -0.0031918052 -0.11935374 -0.011378188 -0.0056125796 0.0070624044 -0.07988984
-0.04205038 -0.0009445628 0.26606917 -0.010104462 -0.012138537 0.39503282 -0.090190314 0.09144933
-0.16762993 -0.06929209 0.057058815 0.076879464 0.35507897 0.2604121 -0.03291846 0.28569758
0.167277 -0.09277415 0.17138845 0.16814075 -0.0005643634 -0.10743319 -0.05241606 0.14636993
0.089323714 0.36232352 0.21769084 0.3348549 0.4856967 0.06587153 -0.05904763 -0.00052234106
0.048458874 0.069264345 -0.01976974 0.3767266 -0.1585505 0.124086894 0.29999745 0.15918407
0.03669484 0.027710356 -0.008856327 0.03535774 0.0916341 0.08497428 -0.015261207 0.09048759
00000000: 0df7 6dbe 8d14 94bd 9119 263e 65ff 123e
00000010: 7767 febd ec6a bbbe d5d3 b0bd dd43 e5be
00000020: 57d7 06bd 7d5a c3be 3268 44bf 67a1 dabd
00000030: 46c2 263e 7a39 81bb f76f 43bd fd16 b2be
00000040: d8f5 93be ae04 19bf 677e 843d 82a6 8bbe
00000050: 1777 2c3e e7b2 c33d f0fa 93bd b2c2 953e
00000060: 030b 81be 18c8 01bf d0f5 e9bc 854b fdbe
00000070: e704 36be bda5 42bf 9c0e c0bd d923 adbe
00000080: 7fb4 9e3d 424a b43d 53a9 63be aa67 7fbe
00000090: cecd a4bc 8532 f7bd 924b 67be 7761 6cbd
000000a0: 87b7 603e 3261 7f3e 2801 a83d 2683 6bbe
000000b0: e5cd ac3c eefb dd3e b035 c63e 422b 163f
000000c0: 8b10 833d 79d7 353e 49fd 353f 9eed 793e
000000d0: 8d35 0cbe a72c 0fbc f82e b93e 34cb 673e
000000e0: fe54 17bd 2a21 de3e adb4 473d b4ff 1c3f
000000f0: 5b67 6d3d 1096 8f3e 70dd 273d 826f 283e
00000100: af57 833e c38b ad3e 38e3 673d 8c8e 4f3f
00000110: 9189 853e 89c2 dc3e be0a 80be 32fa b6bc
00000120: 7035 653e 8c45 383e 1835 c33e bca4 713e
00000130: ea32 e53d 7ab7 0d3d db5b 45be adce 173e
00000140: 46a7 3e3c 9c0f 023c b2af 8ebd d067 02be
00000150: 02cd 403e 575e 0bbe 3bb9 7d3d 4b40 e9bd
00000160: 51c5 bcbd f8d5 a3bd 6c32 d23d c1b5 453d
00000170: dde5 65be 9a26 8dbd 1f0e 22be d733 89be
00000180: 14e4 983e a252 75bb fdba 90bd f3be ecbd
00000190: 1d04 eb3d 114b 7fbe 7b58 d23d 82d0 f13d
000001a0: d308 a0bd 903c 60bc 9b2d 51bb bc6f f4bd
000001b0: 946b 3abc bbe9 b7bb be6b e73b 499d a3bd
000001c0: 053d 2cbd 899c 77ba 383a 883e 2f8d 25bc
000001d0: b7e0 46bc be41 ca3e b3b5 b8bd c949 bb3d
000001e0: 2ea7 2bbe 03e9 8dbd 81b6 693d fb72 9d3d
000001f0: e9cc b53e bc54 853e 82d5 06bd f446 923e
00000200: a94a 2b3e 6000 bebd 7480 2f3e 172d 2c3e
00000210: c9f1 13ba ef05 dcbd 39b2 56bd 00e2 153e
00000220: 5aef b63d 7882 b93e 59ea 5e3e 1a72 ab3e
00000230: 3dad f83e a7e7 863d eddb 71bd b7ed 08ba
00000240: d07c 463d 77da 8d3d 26f4 a1bc 4fe2 c03e
00000250: 105b 22be 4521 fe3d 4499 993e 2601 233e
00000260: 544d 163d d400 e33c 211a 11bc 47d3 103d
00000270: a9aa bb3d ff06 ae3d 240a 7abc 8f51 b93d

bias_hh_l0 f4 [160]
-0.046137698 -0.099072576 0.154066 0.10252557 0.032486275 -0.42721793 -0.2314857 -0.555951
0.015624231 -0.48174927 -0.7138307 -0.0427772 0.1695842 0.12397874 -0.1619487 -0.24746943
-0.4237775 -0.44752693 0.104449496 -0.49373406 -0.04136832 0.058102205 -0.13984953 0.21075648
-0.22069229 -0.25377867 -0.035906065 -0.64757746 -0.15057828 -0.6541752 0.13409069 -0.21753635
0.1718487 0.014354877 -0.23765522 -0.16956347 -0.12848595 -0.2196897 -0.013497365 -0.1253139
0.20509838 0.01792775 -0.009436212 -0.050700553 0.0124582965 0.54981816 0.40159556 0.45131695
0.08871556 0.19761717 0.632326 0.298178 0.04170602 -0.011481733 0.15454583 0.22071762
0.050520584 0.59372723 0.09801016 0.5384711 0.13409805 0.2049691 -0.12193774 -0.09935617
0.4709933 0.4402879 0.05278102 0.7569469 0.24817598 0.68284166 0.00068691984 0.11537755
0.13068883 -0.030908065 0.5625647 0.19120985 0.0769623 0.009809689 -0.1676979 -0.028592031
0.054456506 0.0682244 -0.24299417 -0.050551403 -0.06864218 -0.034349855 -0.1194017 -0.042927664
-0.22172357 0.18690132 -0.06265718 0.2835748 -0.50702876 -0.16147095 -0.072816685 -0.10219563
0.22561423 -0.1350785 0.036553383 0.11127888 0.08378972 -0.23006003 0.10551742 0.008265296
-0.051231217 0.011498884 0.0011487524 -0.12128073 0.12760502 -0.054065865 -0.07464146 0.19326827
-0.14179225 -0.10350189 0.06921559 0.01155466 -0.09477881 0.23982991 0.0524342 -0.15671417
0.026882986 0.028097441 0.18941137 0.09016955 0.089330636 0.20266739 0.030633708 0.33154848
0.08772578 0.07695812 0.40149546 -0.0077344566 0.002498686 -0.12209253 -0.14778087 -0.12508248
0.04052473 0.44534194 0.1834485 0.38040677 0.3213856 0.1311851 -0.30937874 0.049510542
0.070877805 -0.059091866 0.028817503 0.3847023 -0.07098744 0.250754 0.10269647 0.20391211
0.11084755 0.21187577 -0.006306281 -0.13165513 -0.12906337 0.083960935 0.17453285 0.2272299
00000000: e2fa 3cbd 90e6 cabd 7ac3 1d3e edf8 d13d
00000010: 5410 053d 4fbc dabe 960a 6dbe ce52 0ebf
00000020: c6fc 7f3c d7a7 f6be 9cbd 36bf 2537 2fbd
00000030: 7ba7 2d3e 91e8 fd3d e1d5 25be a068 7dbe
00000040: 5df9 d8be 4022 e5be 9ee9 d53d b6ca fcbe
00000050: d471 29bd 94fc 6d3d b734 0fbe 8cd0 573e
00000060: 29fd 61be 47ef 81be 3d12 13bd a3c7 25bf
00000070: 3131 1abe 0778 27bf 124f 093e d9c1 5ebe
00000080: 1bf9 2f3e b830 6b3c e45b 73be 0ca2 2dbe
00000090: d291 03be 56f6 60be 0d24 5dbc 4952 00be
000000a0: 4f05 523e 37dd 923c 579a 1abc 62ab 4fbd
000000b0: e21d 4c3c e2c0 0c3f ef9d cd3e 0413 e73e
000000c0: 81b0 b53d 285c 4a3e 1ee0 213f c9aa 983e
000000d0: eed3 2a3d e11d 3cbc 4341 1e3e cd03 623e
000000e0: acee 4e3d 82fe 173f 8db9 c83d 3ed9 093f
000000f0: 0051 093e 6be3 513e 7eba f9bd 3f7b cbbd
00000100: 0926 f13e 6a6d e13e e930 583d 46c7 413f
00000110: d821 7e3e b6ce 2e3f 6912 343a 114b ec3d
00000120: 4bd3 053e e932 fdbc 3d04 103f 84cc 433e
00000130: 699e 9d3d d1b8 203c 00b9 2bbe d639 eabc
00000140: c90d 5f3d 3cb9 8b3d 77d3 78be fd0e 4fbd
00000150: 4594 8cbd 6fb2 0cbd e188 f4bd ebd4 2fbd
00000160: 810b 63be 0f63 3f3e 6852 80bd b730 913e
00000170: a3cc 01bf a458 25be ea20 95bd f14b d1bd
00000180: 6b07 673e 0552 0abe 00b9 153d 2ee6 e33d
00000190: f299 ab3d db94 6bbe 8419 d83d 2a6b 073c
000001a0: d3d7 51bd d165 3c3c bc91 963a 0862 f8bd
000001b0: e4aa 023e 2b74 5dbd 9fdd 98bd 1ee8 453e
000001c0: fd31 11be cdf8 d3bd e7c0 8d3d c24f 3d3c
000001d0: 651b c2bd f995 753e 3ec5 563d ae79 20be
000001e0: b539 dc3c 9b2c e63c 0ef5 413e d0aa b83d
000001f0: fbf2 b63d 0a88 4f3e 8bf3 fa3c b9c0 a93e
00000200: 93a9 b33d 389c 9d3d d090 cd3e 5371 fdbb
00000210: ffc0 233b a60b fabd de53 17be 9f15 00be
00000220: 42fd 253d dc03 e43e ecd9 3b3e adc4 c23e
00000230: a78c a43e 6355 063e e466 9ebe 91cb 4a3d
00000240: 6228 913d 500a 72bd af12 ec3c b3f7 c43e
00000250: dd61 91bd d462 803e 8752 d23d 56ce 503e
00000260: 0a04 e33d f6f5 583e eba4 cebb 9ad0 06be
00000270: 3029 04be b6f3 ab3d bdb8 323e f4ae 683e

weight f4 [1, 40]
-0.040927704 -0.03279593 -0.4157372 -0.18064608 0.24721958 0.031066844 0.14033298 0.03006928
-0.07834763 -0.009857577 0.15896676 0.06613452 -0.09594163 0.08195056 -0.019085016 -0.033636995
0.025151582 0.1007904 -0.012420937 -0.13697183 0.059279077 -0.045622263 -0.7515888 -0.09760248
-0.05203256 0.24598245 -0.16826665 0.100595675 0.08297616 0.0038350802 -0.030456949 0.023935154
0.017727457 0.049316388 0.2825976 0.08080251 -0.14272098 0.2598756 -0.027025266 -0.111482345
00000000: cfa3 27bd 0655 06bd 82db d4be 49fb 38be
00000010: 2127 7d3e e57f fe3c 73b3 0f3e da53 f63c
00000020: b974 a0bd ad81 21bc 2fc8 223e 8971 873d
00000030: 0c7d c4bd b2d5 a73d 2e58 9cbc f2c6 09bd
00000040: b10a ce3c 326b ce3d 3081 4bbc 5842 0cbe
00000050: 9ece 723d 69de 3abd 2068 40bf cfe3 c7bd
00000060: 1820 55bd d3e2 7b3e 184e 2cbe 1b05 ce3d
00000070: 68ef a93d f855 7b3b da80 f9bc a813 c43c
00000080: 2c39 913c fbff 493d a2b0 903e c97b a53d
00000090: 7325 12be 6a0e 853e 1764 ddbc db50 e4bd

weight f4 [1, 40]
-1.0135608 1.6239464 -0.2569992 -1.2297823 0.37282142 -0.8295451 -0.5959733 -0.01735875
-0.20075218 0.92711776 0.539571 0.6349279 0.89168096 -0.969852 -1.2148794 2.3768554
-0.39221808 0.04596877 0.059442908 1.1018506 -0.7237938 -0.12117311 1.456873 0.44447395
1.293859 0.6396993 -0.9087586 -0.67777026 0.86075586 1.320569 -0.9832022 -0.48113227
0.16986124 -0.9061617 0.017298533 1.5784928 -1.5914081 -1.6101902 0.2169978 0.99487215
00000000: 5cbc 81bf 7add cf3f 6695 83be 8269 9dbf
00000010: 73e2 be3e 115d 54bf b591 18bf f033 8ebc
00000020: fb91 4dbe 9757 6d3f 5321 0a3f a38a 223f
00000030: 3445 643f 3848 78bf 2b81 9bbf 661e 1840
00000040: cfd0 c8be c049 3c3d 687a 733d 7109 8d3f
00000050: 8d4a 39bf 9c29 f8bd d17a ba3f 1792 e33e
00000060: 2c9d a53f 55c3 233f 67a4 68bf 5a82 2dbf
00000070: 7f5a 5c3f 6808 a93f 24b3 7bbf f856 f6be
00000080: 1bf0 2d3e 37fa 67bf a7b5 8d3c 0d0c ca3f
00000090: 43b3 cbbf b61a cebf ac34 5e3e f1af 7e3f
