model/model.pth (torch, 46657 bytes, 8 tensors)

weight f4 [20, 1]
0	0xbf16dad9	-0.58927685
1	0xbeea9ada	-0.45821267
2	0xbf694ad1	-0.91129786
3	0x3f73857b	0.9512555
4	0x3f383d3c	0.71968436
5	0x3ee5291e	0.44757932
6	0x3e96c287	0.29445288
7	0xbe3381df	-0.1753001
8	0x3f2f7a5e	0.6854609
9	0x3ec3233a	0.38112813
10	0x3ec3871a	0.38189012
11	0x3ecc07ac	0.39849603
12	0xbf60076d	-0.8751133
13	0x3c30cb88	0.010790713
14	0x3f2736a0	0.65317726
15	0xbf0220d0	-0.5083132
16	0xbf414c18	-0.75506735
17	0x3f5ba673	0.85800856
18	0xbf1e94ea	-0.61945975
19	0xbf109e7a	-0.56491816

bias f4 [20]
0	0x3f875147	1.0571679
1	0x3ee00cd7	0.43759796
2	0x3f14faa6	0.5819496
3	0x3e824b8f	0.25448272
4	0xbeb25213	-0.34828243
5	0x3da08114	0.0783712
6	0x3ee19957	0.44062302
7	0xbece3634	-0.4027573
8	0xbf0a2ba7	-0.5397286
9	0x3f377226	0.7165855
10	0xbf3b2ba4	-0.73113465
11	0x3f2e7e2f	0.6816129
12	0x3f79c7a5	0.9757026
13	0xbf174bf7	-0.5910029
14	0xbea725c5	-0.32646003
15	0xbf4b526c	-0.7942264
16	0x3f36e893	0.7144863
17	0x3eb74046	0.35791224
18	0x3ee0b751	0.4388986
19	0x3f22f983	0.63661975

weight_ih_l0 f4 [160, 23]
0	0xbd75a883	-0.05997516
1	0xbc8cc8f4	-0.017185666
2	0x3d459b5f	0.048243877
3	0xbd870be9	-0.065940686
4	0x3caa45bc	0.020785205
5	0xbda09e3e	-0.07842682
6	0x3e3ffba5	0.18748339
7	0xbdffb388	-0.12485415
8	0x3e6a5784	0.22884947
9	0xbdc8f85c	-0.09812996
10	0x3de7ac49	0.11312158
11	0x3d36bac9	0.044611726
12	0xbd246567	-0.040135767
13	0x3dee28ae	0.11628853
14	0x3e165685	0.14681442
15	0x3dccfb90	0.10008919
16	0xbc576847	-0.01314742
17	0xbda7ddbf	-0.081965916
18	0xbe3f439b	-0.18678133
19	0x3e0e85d9	0.13918246
20	0xbe362805	-0.17788704
21	0x3d92093e	0.07130669
22	0xbc4e6a6d	-0.012598616
23	0xbdd908f0	-0.10597408
24	0x3ba7ec32	0.005124592
25	0xbdf4369a	-0.11924477
26	0x3d1ddeb2	0.038542457
27	0x3e83e98a	0.25764114
28	0x3d56bb33	0.05242462
29	0x3e49eccb	0.19719236
30	0xbdb4e562	-0.08832814
31	0x3e833934	0.2562958
32	0x3ced81e4	0.0289926
33	0x3dc96ce1	0.0983522
34	0x3d21497d	0.039376725
35	0xbe6c3ef1	-0.23070885
36	0xba9fe4a2	-0.0012198875
37	0x3eb609f3	0.35554466
38	0xbe4e2bd2	-0.20133904
39	0x3d44f2e0	0.048083186
40	0x3e351c9b	0.17686693
41	0xbe8103dc	-0.25198257
42	0x3b8c0536	0.004273082
43	0xbe675efc	-0.22594827
44	0xbdc0d777	-0.09416097
45	0xbd2cff86	-0.042235874
46	0x3e25060e	0.16115591
47	0xbe221c5f	-0.15831135
48	0xbe88ea35	-0.26741186
49	0x3e9f8ea8	0.31163526
50	0x3e9737b9	0.295347
51	0x3eb3a7ec	0.35089052
52	0x3eae5be4	0.34054482
53	0xbe8c09c2	-0.27351195
54	0x3e173a93	0.14768438
55	0x3e97c6ea	0.29643947
56	0xbe0577ac	-0.13033932
57	0x3d98dac7	0.074636035
58	0x3da4f196	0.08053891
59	0xbeae464c	-0.34038007
60	0x3e06649a	0.13124314
61	0xbe52fa2f	-0.2060325
62	0xbc198ece	-0.009372426
63	0x3e40107f	0.18756293
64	0xbe38e8d5	-0.18057568
65	0xbd18b4f7	-0.037281957
66	0xbe112c68	-0.14177096
67	0xbe4b6072	-0.1986101
68	0xbd4ad55b	-0.049519878
69	0xbdaf2551	-0.085520394
70	0xbd303396	-0.043017946
71	0xbe172381	-0.14759637
72	0x3e8f2335	0.27956548
73	0x3e9d06dd	0.306693
74	0x3e66d60b	0.22542588
75	0x3da38fc0	0.079864025
76	0x3de0450e	0.10950671
77	0x3dc2cb88	0.09511477
78	0xbd72fbb9	-0.059322093
79	0x3e0d4c94	0.13798743
80	0x3e146684	0.14492232
81	0xbe3a94c8	-0.18220818
82	0x3db899dd	0.09013722
83	0x3e987dd1	0.2978349
84	0xbd1e534a	-0.03865365
85	0xbe5d3e8b	-0.2160589
86	0x3e5fac16	0.2184299
87	0xbe056014	-0.13024932
88	0xbe98778a	-0.297787
89	0x3e85a3ba	0.26101476
90	0xbdeabed4	-0.11462179
91	0xbd95c363	-0.07312658
92	0xbe646350	-0.2230351
93	0xbe418399	-0.18897857
94	0xbee20d4e	-0.44150776
95	0xbc3429f6	-0.010996332
96	0x3e88df8c	0.26733053
97	0x3d2a27af	0.04154175
98	0x3cf53585	0.029932747
99	0x3cb00430	0.021486372
100	0x3eefdfc3	0.46850404
101	0xbcfc5ad0	-0.030805022
102	0x3e23d60c	0.15999621
103	0xbda17a38	-0.078846395
104	0xbe21b549	-0.15791811
105	0x3d5710ce	0.05250626
106	0x3ed830d6	0.4222476
107	0xbcbac7ec	-0.022800408
108	0xbe68e422	-0.22743276
109	0x3e1656cd	0.1468155
110	0xbeeb01ec	-0.45899904
111	0xbe9ee6fe	-0.31035608
112	0xbebcdfab	-0.36889395
113	0xbdc7a126	-0.097475335
114	0xbdb12315	-0.086492695
115	0xbe1c4d8f	-0.15263961
116	0xbe73ed2c	-0.23820943
117	0xbeb9f8b0	-0.36322546
118	0x3de24cba	0.11049791
119	0x3e97edfc	0.29673755
120	0x3e017955	0.12643941
121	0xbd5fef65	-0.054671664
122	0x3e132d0b	0.14372651
123	0x3e45f67e	0.1933231
124	0xbde4d679	-0.1117372
125	0x3c8a08b5	0.016849855
126	0x3dc70608	0.09717947
127	0xbe3aa374	-0.18226415
128	0xbdf61481	-0.120156296
129	0x3dc3ca65	0.09560088
130	0xbb84a0a1	-0.004047469
131	0xbe1b6ae5	-0.15177496
132	0xbdbf4f78	-0.09341329
133	0xbddcef9a	-0.10787888
134	0xbe6497c9	-0.22323526
135	0x3d7176f3	0.05895133
136	0xbce86421	-0.028368058
137	0xbbdd3376	-0.0067505194
138	0xbeba65f5	-0.36405912
139	0xbe4e6ad9	-0.20157947
140	0xbed40c1e	-0.41415495
141	0x3e6d4e9b	0.23174517
142	0x3e1da84f	0.15396236
143	0x3d778b25	0.060435433
144	0xbde23539	-0.11045308
145	0xbdaa1870	-0.08305442
146	0x3ed56f9c	0.41686714
147	0xbdc4162a	-0.0957454
148	0x3eb4be2a	0.35301334
149	0xbe0dc82b	-0.1384589
150	0xbe87d325	-0.26528278
151	0x3d81385b	0.06309577
152	0x3ec8fa0b	0.39253268
153	0xbdeae92a	-0.11470254
154	0xbe30b23b	-0.1725549
155	0xbc6dd4fd	-0.014516112
156	0xbe4789aa	-0.19486108
157	0xbe587b82	-0.21140864
158	0x3e870c82	0.2637673
159	0xbcedece8	-0.02904363
160	0x3d86aac6	0.06575541
161	0xbe02aa41	-0.12760259
162	0xbd15dfcb	-0.03659038
163	0xbe52da3d	-0.20591064
164	0xbda6c0b7	-0.08142226
165	0x3e4b867b	0.19875519
166	0xbdd90b35	-0.10597841
167	0xbd8f51b0	-0.069980025
168	0x3e03b639	0.12862481
169	0x3e82db98	0.25558162
170	0xbd02d0b8	-0.03193733
171	0xbd829d9a	-0.06377716
172	0xbdecd174	-0.115633875
173	0xbdc331c3	-0.09530976
174	0x3dfc8ec6	0.12331919
175	0x3e84809b	0.25879368
176	0x3d4ed79e	0.050498597
177	0xbe9fb9f5	-0.3119656
178	0x3d4d38f3	0.05010314
179	0xbc3589a6	-0.011080181
180	0xbe9cce5e	-0.30626196
181	0x3db3cc58	0.0877921
182	0xbe697f52	-0.22802475
183	0xbe051782	-0.12997249
184	0xbe2bd0bf	-0.16778849
185	0xbc87d1f5	-0.016579608
186	0xbe93a1bf	-0.2883434
187	0x3d8035f4	0.06260291
188	0x3e4a9269	0.19782414
189	0x3e159138	0.14606178
190	0x3dc9291c	0.09822294
191	0xbdf12d54	-0.11776224
192	0x3e83cd02	0.25742346
193	0x3d96d8b8	0.073655546
194	0xbd5d2b34	-0.05399628
195	0x3e17f9db	0.14841406
196	0xbe9315f1	-0.28727677
197	0x3dfa2e00	0.12215805
198	0x3d9edca6	0.07756929
199	0x3caf85f8	0.021426186
200	0xbd38f2a9	-0.045153294
201	0x3e121283	0.14264874
202	0xbdbe775a	-0.09300108
203	0xbe9186c6	-0.28423136
204	0xbd75273d	-0.059851874
205	0xbe39ff22	-0.18163732
206	0xbd19fbda	-0.0375937
207	0xbdac7069	-0.08419878
208	0xbe874458	-0.2641933
209	0xbe616964	-0.2201286
210	0xbe3f42ba	-0.18677798
211	0x3de1e132	0.11029281
212	0x3cb68022	0.022277895
213	0xbcfb0a01	-0.030644419
214	0x3d660529	0.056157265
215	0x3ca8727e	0.020562407
216	0xbdaf065e	-0.08546136
217	0x3e51b92f	0.20480798
218	0xbe730da7	-0.23735677
219	0xbe1f751d	-0.15572019
220	0x3d9019f2	0.07036199
221	0x3e45a1b3	0.19299965
222	0x3d8ab0dd	0.06772015
223	0xbe7e55d5	-0.2483743
224	0xbe0362a4	-0.12830597
225	0xbe749c66	-0.23887786
226	0xbe4d0e16	-0.20024905
227	0xbeec428a	-0.46144515
228	0xbe3ec7f7	-0.18630968
229	0xbdfc9568	-0.123331845
230	0xbed64386	-0.4184839
231	0xbdff4d90	-0.12465966
232	0xbe49cd4f	-0.19707225
233	0xbd0c5ef4	-0.03427024
234	0x3c4e09a0	0.012575537
235	0xbd57f0c5	-0.05271985
236	0xbe33d6f5	-0.17562468
237	0x3e8099c0	0.25117302
238	0x3e957989	0.29194286
239	0xbe2be871	-0.16787888
240	0x3edae774	0.4275471
241	0xbe371e1b	-0.17882578
242	0xbec9fdd1	-0.3945146
243	0x3df83601	0.121196754
244	0x3da1f56a	0.07908137
245	0x3e9bfd0d	0.304665
246	0xbe20b56d	-0.15694208
247	0xbe4ab404	-0.19795233
248	0xbe99ece0	-0.30063534
249	0xbe9581cf	-0.292006
250	0xbdd426c7	-0.10358959
251	0x3d2e3a09	0.042535815
252	0x3b6c4ff3	0.0036058396
253	0xbc4d654a	-0.012536356
254	0xbd6b01ee	-0.057374887
255	0xbe310dd0	-0.17290425

weight_hh_l0 f4 [160, 40]
0	0x3d10c5ae	0.035344772
1	0x3da6b146	0.08139281
2	0x3d55ec54	0.052227333
3	0xbe0312ba	-0.12800112
4	0x3ae7c4d3	0.001768256
5	0x3cd151bd	0.025551671
6	0x3d97e128	0.07415992
7	0xbd3ea9c0	-0.046548605
8	0x3de93876	0.11387722
9	0x3dca3a72	0.09874429
10	0xbd76bc5b	-0.060238224
11	0x3d3817e3	0.044944655
12	0x3e1ed2c5	0.1551009
13	0xbe82ff40	-0.25585365
14	0x3d816acf	0.063192
15	0x3dff4087	0.124634795
16	0xbe92ab9b	-0.2864655
17	0xbdf2ae80	-0.118496895
18	0xbe276226	-0.16346034
19	0x3dfd021c	0.12353918
20	0xbd904fc1	-0.07046462
21	0xbd3331bf	-0.043748613
22	0xbd79a85f	-0.060951587
23	0x3c787e2a	0.015166799
24	0x3dedcc9a	0.1161129
25	0x3dccacb3	0.09993877
26	0x3e195730	0.14974666
27	0xbe77d4aa	-0.24202219
28	0x3e3d9633	0.18514328
29	0x3dde9406	0.10868077
30	0x3d725bf1	0.059169713
31	0xbcb58f16	-0.022162955
32	0x3b544966	0.0032392382
33	0xbe3b6307	-0.18299495
34	0x3e08fdce	0.13378069
35	0x3ca2e697	0.019885344
36	0xbe0106ee	-0.126003
37	0xbe3ee472	-0.18641832
38	0x3b359345	0.0027706188
39	0xbc433957	-0.011915526
40	0x3dfe4f30	0.124174476
41	0x3e9bc7e6	0.30425948
42	0xbe022b35	-0.12711795
43	0xbdd521ff	-0.10406875
44	0x3eae1226	0.3399822
45	0x3dd73a3a	0.10509153
46	0xbe8a0499	-0.26956633
47	0x3d89c55d	0.06727097
48	0xbf0c7344	-0.5486338
49	0xbe96b151	-0.29432157
50	0xbe947e63	-0.29002675
51	0x3d98d3b0	0.07462251
52	0x3de90b43	0.11379101
53	0xbe07b483	-0.13252454
54	0xbc3c3595	-0.011487384
55	0x3e99b0d2	0.30017716
56	0x3e20458d	0.15651532
57	0x3de42b1a	0.111410335
58	0x3d80c82c	0.0628818
59	0x3cee27ec	0.02907177
60	0xbe872d12	-0.26401573
61	0xbbb26d8e	-0.005445189
62	0x3e09d1b5	0.13458903
63	0x3dfe028a	0.12402828
64	0x3e21dc51	0.158067
65	0xbe2f7aed	-0.17136736
66	0xbdfea62b	-0.12434038
67	0xbcc718c2	-0.024303798
68	0x3c30c40b	0.010788928
69	0xbea1b83f	-0.3158588
70	0xbe52187a	-0.2051715
71	0xbd930267	-0.071781926
72	0xbe1dc223	-0.15406089
73	0xbccf76dc	-0.025325231
74	0x3e2b994d	0.16757698
75	0x3e80fce0	0.25192928
76	0xbe42acaf	-0.19011186
77	0xbe5febac	-0.21867245
78	0xbcc2130e	-0.023690727
79	0xbde1de99	-0.11028785
80	0xbe4af4c1	-0.19819929
81	0xbe9aec56	-0.30258435
82	0x3de7d575	0.113200106
83	0x3e5ead76	0.21745858
84	0x3d384f24	0.04499735
85	0x3d187f7b	0.03723095
86	0xbe80bf41	-0.25145915
87	0x3e74f15b	0.23920195
88	0x3ea2a877	0.31769153
89	0xbd8b9855	-0.068161644
90	0xbf3b3c9b	-0.7313935
91	0xbd424674	-0.04743047
92	0xbe919f80	-0.28442
93	0x3e956acf	0.2918305
94	0x3dfed556	0.12443034
95	0xbe4b3806	-0.1984559
96	0xbce53d58	-0.027983353
97	0x3e141006	0.14459237
98	0x3eafdf12	0.34349877
99	0xbdcc716c	-0.09982571
100	0x3e17f787	0.14840518
101	0x3c0e787d	0.008695719
102	0xbdf6b4de	-0.120462164
103	0xbd8e53f3	-0.06949606
104	0xbd6e1c09	-0.058132205
105	0xbdaae533	-0.083444975
106	0xbe2b9bd4	-0.16758662
107	0xbe0c6685	-0.13710983
108	0x3e0c5a40	0.13706303
109	0x3eff63fb	0.49880967
110	0x3d1b4723	0.037909638
111	0x3e9a2437	0.30105755
112	0x3e1f3e4f	0.15551113
113	0x3e5904cf	0.2119324
114	0x3e79beb9	0.24389161
115	0xbe7e0dba	-0.24809924
116	0x3ef4c518	0.4780662
117	0x3dbf9f62	0.09356572
118	0xbe72d78c	-0.23715037
119	0xbed939af	-0.42426822
120	0x3e77e42f	0.24208139
121	0x3dfd03e4	0.12354258
122	0xbe514306	-0.20435724
123	0xbda57e3e	-0.080807194
124	0x3e687487	0.22700702
125	0xbded10d7	-0.115754776
126	0xbda8da41	-0.08244754
127	0x3d7e1143	0.06202818
128	0xbd7e9d3b	-0.062161665
129	0x3b52bb07	0.0032154934
130	0xbdc49651	-0.09598983
131	0x3e1d47e2	0.15359452
132	0x3e878c14	0.2647406
133	0xbda5dcd3	-0.080987595
134	0x3a21ec97	0.0006176917
135	0x3dbbd24e	0.09170972
136	0x3c6b763a	0.014371449
137	0xbdf49376	-0.119421884
138	0xbdefe9c3	-0.117145084
139	0x3e80fbc8	0.25192094
140	0xbda394df	-0.07987379
141	0xbcfe38e2	-0.031032983
142	0xbd60c316	-0.05487355
143	0x3ec57502	0.38565832
144	0x3e429e5e	0.19005725
145	0xbe77b257	-0.24189125
146	0x3de2217e	0.110415444
147	0x3e071e83	0.13195233
148	0xbdc3e9ec	-0.095661014
149	0xbd0a6098	-0.033783525
150	0x3e53b54b	0.20674627
151	0x3cf8a70c	0.030353092
152	0x3dbd3ede	0.092405066
153	0x3e9fe6c8	0.3123076
154	0xbe0bbbb7	-0.13645826
155	0x3e5340f5	0.20630248
156	0xbe264cd3	-0.16240244
157	0xbe2f41ae	-0.17114899
158	0xbc8de319	-0.017320203
159	0x3e736439	0.237687
160	0x3d82650b	0.06366929
161	0xbd7227e3	-0.05912007
162	0x3e3f826d	0.18702097
163	0xbe31dd90	-0.17369676
164	0xbdc4be1d	-0.09606574
165	0x3e07d602	0.13265231
166	0xbe19d33c	-0.15021986
167	0x3d3676cc	0.044546887
168	0x3e4c3644	0.19942576
169	0x3d9de6c1	0.077100284
170	0xbe018098	-0.12646711
171	0x3e82b840	0.25531197
172	0xbdb9549a	-0.090493396
173	0x3ddd1331	0.10794676
174	0xbe49ffdf	-0.19726513
175	0x3e70c83b	0.23513882
176	0xbe7ad14f	-0.24493907
177	0xbe15d895	-0.146334
178	0x3dd7d432	0.1053852
179	0x3da474ed	0.08030114
180	0x3dc145de	0.09437154
181	0x3da06fc3	0.07833817
182	0x3e3b2021	0.18273975
183	0xbd66045d	-0.056156505
184	0x3e4ae3d5	0.19813474
185	0x3db57cac	0.0886167
186	0x3d39983c	0.045311198
187	0xbe15a349	-0.1461307
188	0xbd4ff552	-0.050771065
189	0x3df7e0b1	0.12103403
190	0x3e2db9e9	0.1696545
191	0xbceb05ab	-0.028689226
192	0x3c8a28f7	0.016865237
193	0xbd25880a	-0.04041294
194	0x3c2f1a99	0.010687494
195	0x3ddcce16	0.10781495
196	0xbdc895f7	-0.097942285
197	0xbe82578b	-0.25457415
198	0xbd86666f	-0.065625064
199	0x3d4caf2d	0.04997175
200	0xbcd28c63	-0.025701707
201	0xbbd30362	-0.0064396122
202	0xbe79150f	-0.2432444
203	0xbd0184ce	-0.031620793
204	0x3da6e4ae	0.08149086
205	0xbe042220	-0.12903643
206	0xbe1e35d5	-0.15450223
207	0xbbceecbe	-0.006314843
208	0x3e8b819d	0.27247325
209	0xbd8c7da6	-0.06859903
210	0x3ecd9c0a	0.4015811
211	0xbb4c7f6b	-0.0031203877
212	0x3e25d2ca	0.16193691
213	0xbe541236	-0.20710072
214	0xbe1cf20e	-0.15326712
215	0x3df3f35c	0.119116515
216	0xbe0511f7	-0.12995134
217	0xbd0dd85c	-0.034630165
218	0xbd3068c2	-0.043068655
219	0x3d5b92b5	0.053606708
220	0x3d2354e4	0.03987588
221	0xbe22ba9a	-0.15891495
222	0x3d3418ea	0.043969072
223	0xbdc20bb2	-0.09474887
224	0x3e09fb67	0.13474809
225	0xbe50e9a1	-0.20401622
226	0xbd882088	-0.0664683
227	0xbe428961	-0.18997718
228	0x3c863631	0.016383262
229	0xbc9e5924	-0.019329615
230	0xbcc469f2	-0.0239763
231	0xbe3a7fb3	-0.18212776
232	0xbb96b91b	-0.004599703
233	0xbe846a47	-0.25862333
234	0xbd1de60e	-0.038549475
235	0xbdc2144d	-0.09476528
236	0x3e2d851c	0.16945308
237	0xbda2b6a8	-0.07944995
238	0x3ea65168	0.32483983
239	0x3e66a0a2	0.22522214
240	0x3d0f252b	0.034947556
241	0xbe163e17	-0.14672123
242	0xbe04df67	-0.12975846
243	0x3e64801f	0.223145
244	0xbda172c4	-0.07883218
245	0x3c5dfda9	0.013549247
246	0x3e49df6b	0.19714133
247	0x3dac01d6	0.08398788
248	0xbdba537c	-0.09097955
249	0xbdbbdddf	-0.09173178
250	0xbdca16ff	-0.098676674
251	0xbd11047a	-0.03540466
252	0xbd9c1d72	-0.07622804
253	0x3e3bf530	0.1835525
254	0x3e3643fb	0.1779937
255	0xbe2a695d	-0.16641755

bias_ih_l0 f4 [160]
0	0xbdbe06bb	-0.092786275
1	0xbd30014e	-0.042969994
2	0x3e331e2a	0.17491975
3	0x3d7a23c6	0.061069272
4	0xbe39a778	-0.1813029
5	0xbdd98f0f	-0.106229894
6	0xbde90728	-0.11378318
7	0xbb493b45	-0.0030705493
8	0x3d394d49	0.04523972
9	0xbe776604	-0.2416001
10	0xbe588c1c	-0.21147197
11	0xbdc7fc1b	-0.09764882
12	0xbd874594	-0.06605068
13	0xbcb54892	-0.02212933
14	0xbbe2ed7e	-0.006925284
15	0xbe46ceaf	-0.19414781
16	0xbdae3c6e	-0.0850762
17	0xbd914abc	-0.070943326
18	0x3d2b6c0a	0.04185108
19	0x3d3f8973	0.04676194
20	0x3e07f60c	0.13277453
21	0x3d3ce06b	0.04611246
22	0xbd093e78	-0.03350684
23	0x3e31107d	0.17291446
24	0xbdb89988	-0.09013659
25	0xbe4c5b3c	-0.19956678
26	0x3d472fd9	0.048629615
27	0x3d961bdb	0.07329532
28	0x3d8bffee	0.06835924
29	0xbeabab7d	-0.33529273
30	0xbe24ecde	-0.16105983
31	0xbd69cd28	-0.057080418
32	0x3d8f7f0c	0.07006654
33	0x3dc96e74	0.098355204
34	0x3d8da412	0.069160596
35	0xbd6c08ba	-0.05762551
36	0x3db064ef	0.086130016
37	0xbdb01b24	-0.08598927
38	0xbd311cad	-0.043240238
39	0x3d94bc30	0.072624564
40	0x3e27a388	0.16370976
41	0x3e61e9e0	0.22061872
42	0x3e583382	0.21113399
43	0xbe1554e1	-0.1458316
44	0xbca061c4	-0.019577868
45	0x3da41177	0.08011144
46	0x3e421102	0.189518
47	0x3e7879de	0.24265239
48	0x3d55c437	0.05218908
49	0x3e776dbd	0.24162956
50	0x3e9945ee	0.29936165
51	0x3dce920d	0.10086451
52	0xbd6336da	-0.055472232
53	0x3be73da7	0.00705691
54	0x3d424223	0.047426354
55	0x3d40da29	0.047083054
56	0xbc37301c	-0.011180904
57	0x3dfdd8d8	0.12394875
58	0x3db112e1	0.08646179
59	0x3e59ee20	0.21282244
60	0xbe0f0baa	-0.13969293
61	0x3def43a6	0.11682825
62	0x3b41611f	0.0029507352
63	0x3e8999a7	0.2687504
64	0xbc0de8af	-0.008661433
65	0x3cecf25e	0.028924163
66	0xbd0ec6af	-0.03485745
67	0x3e725378	0.23664653
68	0x3d1c5510	0.03816706
69	0x3e253ca8	0.1613642
70	0xbe1c3d17	-0.15257679
71	0xbcffca23	-0.031224316
72	0x3dbabc24	0.09117916
73	0x3e89a7ad	0.2688574
74	0x3e1bc86f	0.15213178
75	0x3d15f481	0.03661013
76	0xbbd0f718	-0.006377112
77	0x3d4c44c7	0.04987028
78	0xbc460d00	-0.01208806
79	0x3e3b2780	0.18276787
80	0x3b9354fd	0.0044962154
81	0xbd624948	-0.055245668
82	0x3bcdf057	0.0062847543
83	0xbbf85384	-0.007578315
84	0x3dec8e60	0.115505934
85	0xbc5c4e70	-0.013446435
86	0x3d8d05f4	0.06885901
87	0xbd688524	-0.056767598
88	0xbd00099f	-0.031259175
89	0xbe0a6bca	-0.13517681
90	0x3e1c696d	0.15274592
91	0xbd65dc46	-0.056118272
92	0x3d57c83b	0.05268119
93	0x3cd50906	0.02600528
94	0xbddd91ec	-0.10818848
95	0xbb4aa960	-0.003092371
96	0x3e1e59f6	0.15464005
97	0x3d5f5b73	0.054530572
98	0x3c07cee8	0.008289076
99	0xbd9d81ce	-0.07690774
100	0x3d844c8b	0.06459912
101	0xbd8be223	-0.068302415
102	0x3e4808ba	0.19534579
103	0x3dc673c9	0.09690053
104	0x3c7bf5cb	0.015378426
105	0xbd5920b0	-0.05300969
106	0x3d91951d	0.07108519
107	0xbda0dfe8	-0.07855207
108	0x3d02c63a	0.031927325
109	0xbd10a8fe	-0.035317414
110	0x3c9fb040	0.019493222
111	0xbe065441	-0.13118078
112	0x3d573004	0.052536026
113	0x3bce35f8	0.0062930547
114	0x3e527641	0.20552923
115	0xbd9276ac	-0.07151541
116	0x3d3bde11	0.045866076
117	0x3d8fcedb	0.070218764
118	0xbd189596	-0.03725203
119	0x3df13723	0.117780946
120	0xbe12299d	-0.14273687
121	0x3d68b1e7	0.056810286
122	0x3bb024c7	0.005375478
123	0x3e175008	0.14776623
124	0x3e3b71aa	0.18305078
125	0x3e28ab3a	0.16471568
126	0x3dcbe660	0.0995605
127	0x3e5fa369	0.2183968
128	0x3d70a7c0	0.05875373
129	0xbc3b866a	-0.011445621
130	0x3d4acd9b	0.049512487
131	0x3e2abb44	0.16672999
132	0x3e444685	0.19167526
133	0xbd3b8bfb	-0.045787793
134	0xbd989aa7	-0.074513726
135	0x3e4fb0f4	0.20282346
136	0x3e76842c	0.24073857
137	0x3e77d040	0.24200535
138	0x3df3def2	0.11907758
139	0x3da3bfcc	0.07995567
140	0x3e8dd5dd	0.27702227
141	0xbd9cb96f	-0.07652556
142	0x3d04bb50	0.032405198
143	0x3cf7cc9c	0.030248933
144	0x3e4a3241	0.19745733
145	0x3e02dbfe	0.12779233
146	0x3c63183c	0.013860758
147	0x3dd29d24	0.102838784
148	0x3d8396e5	0.06425265
149	0x3e5669d7	0.20938812
150	0x3e21eb64	0.1581245
151	0x3e485122	0.195622
152	0x3dadf3e1	0.08493782
153	0xbd589ab9	-0.05288193
154	0xbd12c50b	-0.035832446
155	0x3d317255	0.043321926
156	0x3dc71df5	0.09722511
157	0x3e3ebac6	0.18625936
158	0x3c3b0658	0.011415087
159	0x3d82eef1	0.06393231

bias_hh_l0 f4 [160]
0	0x3dbf6ab8	0.09346527
1	0xbd8ed2b7	-0.069737844
2	0x3e2ac813	0.16677885
3	0x3ca42de9	0.020041423
4	0xbcc97f86	-0.02459694
5	0xbe2b6a54	-0.1673978
6	0xbe8491fc	-0.25892627
7	0xbde3d063	-0.11123731
8	0x3dc011d0	0.093783975
9	0xbeaf0057	-0.34179947
10	0xbe21e25b	-0.15809004
11	0xbd09ed06	-0.03367331
12	0xbd72f6d9	-0.059317444
13	0x3dd8aa0e	0.1057931
14	0xbdf8239c	-0.12116167
15	0xbdc01266	-0.09378509
16	0xbe612541	-0.21986867
17	0x3da24f83	0.07925322
18	0x3da720fb	0.081605874
19	0xbe326697	-0.17421947
20	0xbd9dba9b	-0.07701608
21	0x3c0ddfc6	0.008659309
22	0xbdcf0f06	-0.10110287
23	0x3dbab82f	0.091171615
24	0xbd70cc9a	-0.058788873
25	0x3d5b9ae2	0.053614505
26	0x3d291899	0.041283224
27	0xbda2f1a4	-0.079562455
28	0x3dc3a739	0.095533796
29	0xbe6aa02b	-0.22912662
30	0x3d88d2eb	0.066808544
31	0x3d82265a	0.06354971
32	0x3e285eff	0.16442488
33	0x3cca2a02	0.024678234
34	0x3d5c7dd7	0.053830948
35	0x3cb61f79	0.022231804
36	0xbcb62985	-0.022236595
37	0xbe3d6ad2	-0.1849778
38	0x3e2d31b7	0.16913496
39	0x3ba4806a	0.005020191
40	0x3e18f14f	0.14935802
41	0xbc31a739	-0.010843092
42	0x3df51360	0.11966586
43	0x3d090d52	0.03345997
44	0xbce720f6	-0.02821396
45	0x3e491444	0.19636637
46	0x3e50e1ab	0.20398585
47	0x3ddbe6ba	0.10737367
48	0x3d9d8173	0.07690706
49	0x3e85f93c	0.26166713
50	0x3e621877	0.22079645
51	0x3e1eb035	0.15496905
52	0x3dfc38ed	0.12315545
53	0x3b8d5928	0.004313607
54	0xbe238ce7	-0.15971719
55	0x3d29bc0e	0.04143911
56	0x3d9c3b7d	0.07628534
57	0x3e91521d	0.2838296
58	0x3e0af90c	0.13571566
59	0x3e0d5374	0.13801366
60	0xbd822913	-0.063554905
61	0x3d29658b	0.041356605
62	0xbe23ce77	-0.15996729
63	0x3ba0cac5	0.0049069845
64	0x3e52bdd7	0.2058023
65	0x3e056169	0.1302544
66	0xbd1e78f6	-0.038689576
67	0x3e3b368f	0.18282531
68	0x3cd12453	0.025530016
69	0x3ed37a85	0.41304412
70	0x3dc9189f	0.09819149
71	0x3dda165b	0.10648795
72	0xbb013b26	-0.0019719093
73	0x3d6d8f26	0.057997845
74	0x3eaab7cf	0.3334336
75	0xbc05b4d0	-0.008160785
76	0xbd294749	-0.04132775
77	0x3ccd761f	0.025080739
78	0x3c541d1e	0.012946395
79	0x3bc23e70	0.0059278533
80	0x3d41cf45	0.04731681
81	0x3ba52dab	0.0050408444
82	0xbe2b0bbf	-0.167037
83	0x3d8dc2f5	0.06921951
84	0xbe10d07a	-0.14142027
85	0x3db4d980	0.08830547
86	0xbde65f92	-0.11248697
87	0x3c689a29	0.014196911
88	0xbe24ab15	-0.16080888
89	0x3e06e256	0.13172278
90	0xbc4d9247	-0.012547082
91	0x3e377d5f	0.17918919
92	0xbe6b5a8a	-0.22983757
93	0xbd88472d	-0.06654201
94	0xbcba5b3f	-0.022748588
95	0x3e2696fc	0.16268533
96	0x3da733ac	0.081641525
97	0xbd9d4c77	-0.076806
98	0x3dec9119	0.11551113
99	0x3e1991ef	0.14997075
100	0x3d09c4ee	0.033635072
101	0xbd48eb54	-0.04905255
102	0x3e4ae94f	0.19815563
103	0xbc5381b2	-0.01290934
104	0x3d2d370f	0.042288836
105	0xbce3f00b	-0.027824422
106	0x3d9a78ea	0.07542594
107	0xbda4d24d	-0.08047924
108	0x3e2f033f	0.17091082
109	0xbdab8ffa	-0.08377071
110	0xbd7ed073	-0.06221051
111	0x3e116295	0.14197762
112	0xbd415ad5	-0.047205765
113	0xbdc5267b	-0.0962648
114	0x3c0e1341	0.008671583
115	0xbd4c368d	-0.04985671
116	0xbd16a083	-0.03677417
117	0xbdae0d2d	-0.08498607
118	0x3dd7ccc6	0.10537104
119	0xbe05838a	-0.1303846
120	0x3d54131d	0.05177604
121	0x3e1de65c	0.15419906
122	0x3e0d08bd	0.13772865
123	0x3e24ebfd	0.16105647
124	0xbda95f50	-0.082701325
125	0x3ddb1556	0.10697429
126	0x3e2706fd	0.1631126
127	0x3e874b9c	0.26424873
128	0xbcaa5fd3	-0.020797646
129	0x3e2215b5	0.15828593
130	0x3e8f29de	0.2796163
131	0xbc15db5e	-0.0091465395
132	0x3e476972	0.19473818
133	0xbd77977a	-0.060447194
134	0xbe2df486	-0.1698781
135	0xbd8c8d12	-0.068628445
136	0x3e448bad	0.19193907
137	0x3ea6698a	0.32502395
138	0x3dadbe11	0.08483518
139	0x3e008497	0.12550579
140	0x3de6d7fb	0.11271664
141	0xbc37b306	-0.011212116
142	0xbe5f285a	-0.21792737
143	0x3da46aea	0.08028205
144	0x3e612743	0.21987633
145	0xba13ee6f	-0.00056431344
146	0x3d7fc915	0.062447626
147	0x3de2f2fe	0.11081503
148	0x3e1b75f4	0.15181714
149	0x3eac0fbd	0.33605757
150	0xbd207889	-0.03917745
151	0x3e761e9c	0.24035114
152	0x3e22e8c8	0.15909111
153	0x3e066f17	0.13128315
154	0xbd085325	-0.033282418
155	0xbdfd526a	-0.12369235
156	0xbdfcdfb1	-0.12347353
157	0x3e3db122	0.18524602
158	0x3e4e09a3	0.20120864
159	0x3e4d7dfe	0.20067593

weight f4 [1, 40]
0	0xbd2d5033	-0.042312812
1	0x3d179f15	0.037016947
2	0xbf041f3c	-0.5161016
3	0xbdb48c0b	-0.088157736
4	0x3eaad2eb	0.33364043
5	0x3bf2cbb2	0.0074095363
6	0x3cadacaf	0.021200506
7	0x3cfa2d97	0.030539317
8	0xbe42f9cc	-0.19040602
9	0xbd97b8f8	-0.07408327
10	0xbcabee42	-0.020987634
11	0x3d8a09b8	0.06740135
12	0xbe8ec57d	-0.27885047
13	0x3e08a349	0.13343538
14	0xbdf1da91	-0.11809266
15	0xbd39f569	-0.045400057
16	0xbce564e9	-0.02800222
17	0x3cdcbb8a	0.026944894
18	0xbe039a43	-0.12851815
19	0x3d1b9f3f	0.037993666
20	0x3dafbb19	0.08580608
21	0xbd63d0cd	-0.05561905
22	0xbe9551b4	-0.29163897
23	0xbd159a25	-0.036523957
24	0xbd511d2b	-0.051053207
25	0x3e9fa8e3	0.31183538
26	0xbe6db006	-0.23211679
27	0x3d9c7849	0.0764013
28	0x3dcb4538	0.09925312
29	0xbdad6591	-0.08466638
30	0x3d5eca0b	0.054391902
31	0x3d329798	0.043601602
32	0x3d52028b	0.051271956
33	0xbcdf4a5a	-0.027257133
34	0x3ee8e37d	0.4548606
35	0x3dcfa109	0.10138137
36	0xbdab2f1c	-0.08358595
37	0x3e630e94	0.2217353
38	0xbdcaef80	-0.09908962
39	0xbd548d4f	-0.051892575

weight f4 [1, 40]
0	0xbecc5ed5	-0.399161
1	0x3f4cb7b6	0.7996782
2	0xbeccb026	-0.3997814
3	0xbf4a1cc9	-0.7895017
4	0x3f24cf37	0.64378685
5	0xbec54546	-0.38529414
6	0xbf00c435	-0.5029939
7	0x3de5f6e4	0.11228731
8	0xbe94d32a	-0.29067355
9	0x3ec5db10	0.38643694
10	0x3e393391	0.18086077
11	0x3ebd4c4e	0.36972278
12	0x3f1371b8	0.57595396
13	0xbef967ea	-0.48712093
14	0xbee18487	-0.44046423
15	0x3f25dd35	0.6479066
16	0xbe4664ad	-0.19374342
17	0x3e513a24	0.20432335
18	0xbe21017e	-0.15723225
19	0x3ee6cb17	0.4507682
20	0xbf337d59	-0.7011314
21	0xbe0a4147	-0.13501464
22	0x3f2c5074	0.6731026
23	0x3ee460ab	0.44605002
24	0x3f07587b	0.52869385
25	0x3e9e5d55	0.30930582
26	0xbf0867e6	-0.53283536
27	0xbe6aa1c5	-0.22913273
28	0x3ecd1363	0.40053853
29	0x3f2c2876	0.6724924
30	0xbefc83a6	-0.4931919
31	0xbecbe0ff	-0.39820096
32	0xbdbd4a3e	-0.09242676
33	0xbedb80a6	-0.42871588
34	0x3e080782	0.13284114
35	0x3eecba94	0.46236098
36	0xbf36f68f	-0.7146997
37	0xbf111610	-0.5667429
38	0x3e65319e	0.22382209
39	0x3f261ebf	0.64890665
