model/model.pth (torch, 46657 bytes, 8 tensors)

weight f4 [20, 1]
000000 92 31 16 bf 7d f1 ea be b6 4d 69 bf d4 2c 71 3f
       -0.5866939 -0.45887366 -0.911342 0.9420903
000010 58 74 38 3f 03 85 e4 3e 10 e8 93 3e 45 35 2b be
       0.72052526 0.4463273 0.28887987 -0.1671954
000020 4d 56 2f 3f 84 2c c0 3e 68 20 c4 3e 9a 27 cd 3e
       0.6849106 0.37533963 0.38305974 0.40069276
000030 1a ab 60 bf d9 34 b0 3c 8d b6 26 3f bf 5d 01 bf
       -0.8776108 0.021509575 0.651223 -0.5053367
000040 45 87 41 bf 2d 7e 5b 3f 38 bb 1e bf ef c6 10 bf
       -0.7559703 0.85739404 -0.62004423 -0.5655355

bias f4 [20]
000000 18 6e 87 3f d6 a2 de 3e 87 9e 15 3f 45 08 7b 3e
       1.0580473 0.4348361 0.5844502 0.24514873
000010 0b 26 b5 be 5a fe 98 3d 05 0f da 3e 51 d5 c8 be
       -0.35380587 0.07470389 0.42589584 -0.39225248
000020 ef 51 0a bf af 32 36 3f 55 18 3a bf ae 07 2d 3f
       -0.5403127 0.7117109 -0.7269338 0.67589843
000030 0b 99 79 3f f1 41 15 bf 35 6f a9 be 6b f0 49 bf
       0.9749915 -0.58303744 -0.33092657 -0.78882474
000040 8d f0 36 3f be ea b3 3e bc fd e1 3e 11 86 22 3f
       0.714608 0.35140032 0.44138896 0.6348582

weight_ih_l0 f4 [160, 23]
000000 7b 6a 86 bd f8 ea a8 bc 88 d0 3f 3d 5e 04 9b bd
       -0.06563278 -0.020619854 0.04682973 -0.07569192
000010 69 0b a5 3c 38 6d b4 bd d1 3f 37 3e 83 dd ee bd
       0.020147042 -0.08809894 0.17895438 -0.11663344
000020 ce 04 6d 3e 26 34 da bd 34 5f f3 3d cc 39 13 3d
       0.23146364 -0.10654478 0.11883393 0.03594379
000030 8d c4 35 bd 73 85 fd 3d 1f 34 16 3e da ae de 3d
       -0.0443769 0.12378969 0.1466832 0.10873194
000040 94 fd 88 bc fb 89 bb bd 5b 34 41 be 3f 52 0a 3e
       -0.016722478 -0.09157177 -0.18867628 0.13507937
000050 8c f6 73 be cd a8 64 3d db d8 4a bc ed 1e d2 bd
       -0.23824519 0.055825043 -0.012380804 -0.10259805
000060 44 a2 20 3c 84 ef e6 bd f1 f5 0b 3d 14 01 80 3e
       0.009804312 -0.11276153 0.034170095 0.25000823
000070 4f 35 41 3d 02 a8 49 3e 6d e1 b5 bd 8a 60 80 3e
       0.04716998 0.19692996 -0.08880887 0.25073653
000080 f8 13 ef 3c d6 1c c3 3d 15 b3 21 3d 6c ba 67 be
       0.029184327 0.095269844 0.039477427 -0.22629708
000090 1c 12 47 bb 5c 13 b2 3e 34 1f 4e be 2e 4a 59 3d
       -0.0030375784 0.34780395 -0.2012909 0.05304926
0000a0 99 ec 31 3e 9a 05 7c be 90 40 0a 3c 30 48 5c be
       0.17375411 -0.24611512 0.008438244 -0.21511912
0000b0 9c 05 cb bd 34 00 33 bd c8 3d 24 3e b6 98 22 be
       -0.09913179 -0.043701366 0.16039193 -0.15878567
0000c0 77 2e 89 be f2 9f 9f 3e d3 65 97 3e a6 b9 b3 3e
       -0.26793262 0.31176716 0.29569873 0.35102576
0000d0 1b 18 ae 3e 6b d9 8b be 03 c5 17 3e b1 7d 97 3e
       0.34002766 -0.27314314 0.14821248 0.29588082
0000e0 fa cf 04 be 3c de 97 3d b0 d3 a3 3d 57 d8 ad be
       -0.12969962 0.07415435 0.079993606 -0.33954117
0000f0 fe f2 06 3e ef 81 52 be b1 86 24 bc ef 0f 40 3e
       0.13178632 -0.20557378 -0.010041879 0.18756078
000100 96 61 39 be c3 94 1a bd 15 92 0b be cf 3f 59 be
       -0.18103632 -0.037739526 -0.13629945 -0.21215747
000110 ce 68 80 bd c3 c8 ad bd a7 9d 24 bd d8 b5 12 be
       -0.0626999 -0.08485558 -0.04018941 -0.1432718
000120 72 34 8d 3e ec 9d 9a 3e 20 36 63 3e b1 aa 9e 3d
       0.27579075 0.3019861 0.22188616 0.077474006
000130 3a b7 e4 3d c4 7f bb 3d b9 b6 7c bd 0e 97 0c 3e
       0.1116776 0.09155229 -0.061697695 0.13729498
000140 6d de 11 3e 76 69 38 be 6b b6 ba 3d d9 1d 96 3e
       0.14245005 -0.1800898 0.09116825 0.29319647
000150 2c 22 14 bd 5e 62 5a be 42 2d 5c 3e 42 96 01 be
       -0.0361654 -0.21326587 0.2150164 -0.12654975
000160 2d 87 97 be ed 35 82 3e 12 c8 c0 bd ad 77 b4 bd
       -0.29595318 0.25431767 -0.094131604 -0.08811889
000170 5f 0b 6e be 5e 34 50 be 69 6f eb be c9 b4 f4 3b
       -0.23246525 -0.20332476 -0.45983437 0.0074678403
000180 3f d2 93 3e 56 04 83 3d 88 57 01 3d e2 97 b0 3c
       0.28871343 0.063973114 0.031577617 0.021556798
000190 2e 0f f8 3e 49 eb f4 bc ec 85 2d 3e 89 a7 9e bd
       0.4844908 -0.029897349 0.16945618 -0.077467985
0001a0 c6 e0 2e be 91 ea 68 3d b9 ec e2 3e 29 8c ca bc
       -0.17077932 0.056864325 0.4432123 -0.024725037
0001b0 c1 58 77 be fd 4c 24 3e c5 c9 f3 be 49 70 a5 be
       -0.2415495 0.16044994 -0.47614875 -0.3231223
0001c0 31 f5 bb be 2e 9c ba bd 91 30 aa bd f0 73 1d be
       -0.36710504 -0.0911182 -0.083100446 -0.15376258
0001d0 29 90 74 be 84 f0 b9 be 2e 21 df 3d 39 b3 97 3e
       -0.23883118 -0.3631631 0.108950004 0.29628924
0001e0 36 3f 00 3e 38 4b 68 bd 5d db 14 3e a6 41 46 3e
       0.12524113 -0.05671236 0.14536805 0.1936098
0001f0 0b c6 e8 bd b2 1f 95 3c dc 3c c3 3d 5c 4f 3b be
       -0.11365899 0.01820359 0.095330924 -0.18291992
000200 a4 af f2 bd 68 41 c3 3d a4 20 14 bb 51 04 1c be
       -0.11849907 0.095339596 -0.0022602463 -0.15236022
000210 1b 85 c2 bd 6c 7f dd bd 60 6b 65 be d5 99 0e 3d
       -0.09498044 -0.108153194 -0.22404242 0.034814674
000220 39 b6 07 bd c1 e8 32 bc e5 60 b9 be c7 6f 4a be
       -0.033132765 -0.010919751 -0.36206737 -0.19769202
000230 c5 55 d0 be f7 fa 68 3e 50 9b 13 3e bc e5 63 3d
       -0.40690437 0.22751985 0.14414716 0.055639014
000240 09 fa e4 bd 1d 17 a8 bd b9 ab d2 3e b3 11 c6 bd
       -0.11180503 -0.082075335 0.4114664 -0.096713446
000250 62 e7 b3 3e d5 f7 0e be 22 24 86 be 23 8e 80 3d
       0.3513747 -0.13961728 -0.26199442 0.062771104
000260 22 cf c3 3e ae 56 e8 bd 17 3e 2c be fe 4b 92 bc
       0.38243967 -0.11344658 -0.1682056 -0.017858502
000270 b5 4d 41 be d9 6a 55 be e6 b2 8e 3e a2 ea d3 bc
       -0.18877299 -0.2084154 0.27870864 -0.025868718
000280 a0 dd 6a 3d 90 8c 04 be f9 9d 18 bd 1d 0d 53 be
       0.057340264 -0.12944245 -0.03726003 -0.20610471
000290 75 3b a9 bd 70 69 4b 3e a3 37 db bd 75 a0 94 bd
       -0.08263294 0.1986444 -0.10703971 -0.07257167
0002a0 d2 d2 06 3e 27 10 83 3e a2 06 0e bd 3a ba 7c bd
       0.13166359 0.2559826 -0.034674294 -0.061701037
0002b0 46 4b f2 bd 98 20 c5 bd 31 74 03 3e cc 7a 84 3e
       -0.118307635 -0.096253574 0.12837292 0.25874937
0002c0 39 5d 59 3d 0e 0e a0 be f4 b1 47 3d d9 da 39 bc
       0.05306742 -0.31260723 0.048753694 -0.011343681
0002d0 94 45 9d be a7 00 bb 3d af 04 6d be 2e b6 0b be
       -0.30717146 0.09130984 -0.23146318 -0.13643715
0002e0 9d 8a 24 be 00 48 78 b9 af 95 87 be d8 64 09 3d
       -0.16068502 -0.00023677945 -0.26481387 0.033543438
0002f0 e2 e3 2d 3e bf d7 eb 3d c6 20 ae 3d 0f d7 db bd
       0.16981462 0.1151576 0.08502345 -0.107343785
000300 0e 83 73 3e 61 7a 7d 3d bb 92 78 bd 52 13 0b 3e
       0.23780462 0.061884288 -0.060686808 0.13581589
000310 f5 13 8c be e2 24 00 3e 1b b5 4d 3d 29 10 0e 3d
       -0.27358976 0.1251407 0.050221544 0.03468338
000320 01 a5 ec bc ad da ef 3d 73 4b 92 bd a6 a6 8a be
       -0.028887274 0.11711631 -0.07143297 -0.27080268
000330 3a 15 82 bd e7 50 30 be a6 97 14 bd bf 7c af bd
       -0.06351705 -0.17218362 -0.036277436 -0.08568715
000340 12 56 88 be e7 f7 63 be 9a 0f 3b be c5 65 e7 3d
       -0.26628166 -0.22262536 -0.1826767 0.11298708
000350 e1 e6 d6 3c 17 30 e9 bc 5a 71 60 3d 5e 3b bb 3c
       0.026233139 -0.028465314 0.0547956 0.022855457
000360 ab 7d ab bd 1f 32 53 3e a3 05 71 be 03 74 21 be
       -0.08373579 0.20624588 -0.23537306 -0.15766911
000370 72 cc 90 3d fd 68 48 3e 5d 12 86 3d 68 42 80 be
       0.07070245 0.195713 0.06546471 -0.25050664
000380 1a 3d fe bd 70 0f 77 be fb 02 4f be 3c 2a ee be
       -0.12413998 -0.24126983 -0.2021598 -0.46516597
000390 a8 45 2a be 70 61 ec bd 6b 1b d4 be d0 56 f1 bd
       -0.16628134 -0.11542022 -0.41427168 -0.11784136
0003a0 aa 79 42 be 8c 78 2a bd 70 17 b4 3b 61 f5 75 bd
       -0.18991724 -0.04161887 0.005495958 -0.060048465
0003b0 98 38 3b be 4c 0a 84 3e d7 db 91 3e 7c 57 33 be
       -0.18283308 0.25789106 0.28488037 -0.17513841
0003c0 68 fd d8 3e 17 81 3e be 9a 94 c6 be 8c 8d 02 3e
       0.42380834 -0.18603931 -0.3878525 0.12749308
0003d0 8c 56 93 3d 51 bb 9f 3e 11 c8 19 be 34 45 52 be
       0.07194242 0.311976 -0.15017726 -0.20534211
0003e0 55 4b 96 be b2 24 92 be b8 49 dc bd df f4 69 3d
       -0.2935435 -0.2854362 -0.10756248 0.057118293
0003f0 99 6a aa 3c 65 49 2d bc d8 75 64 bd 90 69 2f be
       0.020802783 -0.010576581 -0.055776447 -0.17130113

weight_hh_l0 f4 [160, 40]
000000 bf e9 35 3d 04 a5 a7 3d 8c 98 98 3d 67 9e 17 be
       0.04441237 0.08185771 0.07450971 -0.1480652
000010 87 43 13 bd 25 fc f0 3c 17 0e a3 3d af 1b 69 bd
       -0.03595307 0.029417107 0.07961672 -0.056911167
000020 8f 10 ca 3d 2d 6f dd 3d 6a 3c 52 bd 7c 2c 57 3d
       0.098664396 0.10812221 -0.051327147 0.052532658
000030 f3 a4 26 3e 96 4f 80 be e8 97 9b 3d fc 57 12 3e
       0.1627386 -0.2506072 0.07597333 0.14291376
000040 e2 d7 92 be 0d 19 04 be df 3e 19 be 1e fa 01 3e
       -0.2868033 -0.12900181 -0.1496539 0.12693068
000050 8a d7 e9 bd 25 89 21 bd a0 df a0 bd d7 68 c6 3c
       -0.11418064 -0.03943743 -0.07855153 0.024219913
000060 dc 5f 04 3e 86 f8 b8 3d 49 c7 18 3e e6 2c 83 be
       0.12927192 0.09031777 0.14919771 -0.25620192
000070 30 d0 29 3e 9f 0c 06 3e f2 cb 9c 3d 30 55 c6 bc
       0.16583323 0.13090752 0.07656087 -0.024210542
000080 04 66 99 3c 85 fd 26 be 7c 89 24 3e 0f 44 ee 3b
       0.018725403 -0.16307648 0.16068071 0.007271297
000090 e1 9d 09 be 2d ca 3d be e2 06 03 3c 9f 9d 27 bb
       -0.13439132 -0.18534155 0.007997246 -0.0025576127
0000a0 a2 54 fd 3d f0 75 9e 3e b1 6f 13 be c3 a1 f1 bd
       0.12369658 0.30949354 -0.14398076 -0.11798432
0000b0 71 60 ab 3e dd 34 d1 3d aa f2 8d be ce db 8f 3d
       0.33472016 0.10215161 -0.277242 0.07024346
0000c0 92 00 12 bf 51 92 97 be 7c ce 90 be c6 69 95 3d
       -0.5703212 -0.29603818 -0.28282535 0.07295565
0000d0 9a e9 e0 3d 86 8d 14 be 82 f6 15 bc 05 57 98 3e
       0.10982056 -0.14507112 -0.00915301 0.2975389
0000e0 4e a6 27 3e 70 c2 e9 3d 9a b8 78 3d e8 17 1e 3d
       0.16372034 0.11414039 0.060722925 0.038597018
0000f0 ef 49 84 be 95 83 04 3a 5f ef 0a 3e 29 f2 fd 3d
       -0.25837657 0.00050550076 0.13567875 0.12399704
000100 f1 77 1e 3e c6 7e 2b be 8f 7e e2 bd 6c ff 3f bd
       0.15475442 -0.16747579 -0.110592954 -0.04687445
000110 a7 80 d2 3c 9d 1f a7 be ee 2b 5e be 08 a7 63 bd
       0.025696112 -0.32641307 -0.21696445 -0.055579215
000120 5f 98 21 be 1c 9a 9e bc ba 3d 32 3e 1f 85 88 3e
       -0.15780781 -0.019360594 0.1740636 0.26664063
000130 b6 53 3e be 83 9f 60 be 4d bf 63 bd f3 68 e8 bd
       -0.1858662 -0.21935849 -0.05560236 -0.113481425
000140 17 cd 47 be 31 fd 99 be 6e 15 ef 3d 9a 31 5f 3e
       -0.1951183 -0.30075982 0.11674009 0.21796265
000150 1d c7 3b 3d 85 8a 09 3d 98 53 7f be 76 f2 73 3e
       0.045844186 0.03357937 -0.24934232 0.2382296
000160 3b 66 b3 3e 9c d3 8b bd c1 8f 46 bf eb 73 38 bd
       0.35038933 -0.06827471 -0.775631 -0.045032423
000170 3b 19 8c be 85 f8 94 3e 2c 7d 04 3e 2c be 51 be
       -0.27363 0.29095855 0.12938374 -0.20482701
000180 43 11 20 bd c9 39 14 3e 46 e1 ae 3e c5 d0 d1 bd
       -0.039078962 0.14475168 0.34156245 -0.10244898
000190 ab 2c 0a 3e 3b fc 9b 3c 7a 82 ff bd 9e d7 8d bd
       0.13493602 0.019041171 -0.12476058 -0.06925891
0001a0 91 ab 7a bd cb 16 c8 bd 45 25 34 be d8 01 00 be
       -0.061198775 -0.097699724 -0.17592342 -0.12500703
0001b0 d0 98 14 3e 76 05 fc 3e 17 2f 2a 3d 41 eb a0 3e
       0.14511418 0.49222916 0.041548815 0.31429484
0001c0 d5 a1 20 3e d8 7c 66 3e f6 d6 87 3e 4f d3 77 be
       0.15686734 0.22508562 0.2653119 -0.24201702
0001d0 31 23 f8 3e 4e 76 a5 3d b2 b1 71 be 3c b7 d7 be
       0.4846435 0.080792055 -0.23602942 -0.42131984
0001e0 62 d0 76 3e 59 a5 ff 3d c0 b4 5e be fe 6d c1 bd
       0.24102929 0.124827094 -0.21748638 -0.094448075
0001f0 d0 87 78 3e d2 3a fd bd 20 5f c0 bd 6c eb 84 3d
       0.24270558 -0.12364735 -0.09393144 0.06490216
000200 08 9a b7 bd b1 d0 92 3b 5d 04 af bd a4 c5 24 3e
       -0.08964926 0.0044804444 -0.08545754 0.16091019
000210 8c f8 86 3e 87 a4 c0 bd 7f bf 02 bc 81 a4 c2 3d
       0.263615 -0.09406381 -0.007980227 0.09504033
000220 95 95 a6 3c ac 48 ee bd 7a 39 f9 bd 22 69 7d 3e
       0.020334998 -0.11634955 -0.12169166 0.24747136
000230 78 f2 ba bd 81 60 4b bd a6 b3 2a bd 01 71 c7 3e
       -0.091282785 -0.04965258 -0.041675232 0.38953403
000240 f1 ca 43 3e 31 34 67 be d0 72 ea 3d 69 db 11 3e
       0.19120385 -0.22578503 0.1144768 0.14243855
000250 de eb ca bd 38 83 15 bd 4b 6a 3d 3e 4c 12 41 3d
       -0.09908269 -0.036502093 0.18497579 0.04713659
000260 f2 1b c8 3d 00 63 9e 3e 15 11 15 be f1 b0 5b 3e
       0.09770955 0.30934906 -0.14557298 0.21454217
000270 24 d2 3c be 7a c7 33 be 90 a1 6d bc 0f 36 76 3e
       -0.18439537 -0.17556563 -0.0145038515 0.24044059
000280 c5 ae 5b 3d d3 01 3d bd 93 b7 36 3e d2 87 33 be
       0.05363347 -0.046144318 0.17843466 -0.1753228
000290 5f 9a c2 bd e7 d9 04 3e 64 f9 24 be 59 c0 09 3d
       -0.095021 0.12973748 -0.1611076 0.033630703
0002a0 6b 18 59 3e ca 0c a7 3d 0b 68 07 be 39 5c 90 3e
       0.21200721 0.08156736 -0.13223283 0.2819536
0002b0 64 99 bb bd b7 aa e6 3d fa 78 5c be 0c f3 78 3e
       -0.09160116 0.1126303 -0.21530524 0.24311465
0002c0 0e 86 89 be 3b a3 1f be 7b de b3 3d 4e 8f b8 3d
       -0.26860088 -0.15589611 0.08782669 0.09011708
0002d0 ab 9f d9 3d b4 88 5d 3d fe 7d 60 3e 16 24 5f bd
       0.106261574 0.05408545 0.21923062 -0.054477774
0002e0 50 e1 56 3e 88 f9 c4 3d bd be fb 3a ef e0 1b be
       0.20984387 0.09617907 0.0019206625 -0.15222524
0002f0 45 7b 15 bd b5 c3 f5 3d 25 80 23 3e c7 fc 07 bd
       -0.036494512 0.12000219 0.15966852 -0.03320005
000300 95 0e a7 bb 85 14 8e bd eb 49 21 3b 0b 11 e7 3d
       -0.005098174 -0.069375075 0.002461071 0.112825476
000310 39 69 e9 bd 27 8d 88 be f2 d1 64 bd 3e 1b 83 3d
       -0.11397023 -0.2667019 -0.055864282 0.064016804
000320 d5 01 da bc 82 ae 38 bb b6 5a 44 be bb d8 10 bd
       -0.026612202 -0.0028180187 -0.19175228 -0.03536294
000330 d4 52 b7 3d b9 33 04 be 04 c2 1d be 54 9b 2b bc
       0.08951345 -0.12910356 -0.15406042 -0.010474045
000340 bd 93 84 3e 58 b5 86 bd 58 67 eb 3e f2 57 4d bc
       0.25893965 -0.06577557 0.45977283 -0.012533175
000350 f3 c0 28 3e e7 6c 4c be ec 3d 22 be 14 e2 ee 3d
       0.16479854 -0.19963418 -0.15843934 0.11664215
000360 2a c7 00 be 6a bf 1f bd dc d7 6b bd a6 91 70 3d
       -0.12575975 -0.039000906 -0.057578906 0.05873265
000370 3d 2c 36 3d 5a 11 21 be e1 51 1a 3d 3c 00 be bd
       0.044475783 -0.15729275 0.037675742 -0.092773885
000380 cc cd 08 3e 42 cf 4f be ff ff 32 bd 6b b8 4c be
       0.13359755 -0.20293906 -0.04370117 -0.19992225
000390 25 60 d6 3c e6 9a ce bc b3 5a b1 bc 99 11 48 be
       0.026168892 -0.025220346 -0.021649694 -0.19537963
0003a0 5b 20 9d bb c0 f4 86 be f6 c3 33 bd 87 c1 dd bd
       -0.004795117 -0.26358604 -0.043888055 -0.10827928
0003b0 de 0d 31 3e 9c a3 86 bd c7 df a7 3e e0 fe 6a 3e
       0.17290446 -0.06574175 0.32787916 0.2294879
0003c0 5d fe 1e 3d b9 c3 19 be 9a f3 0f be 2a db 63 3e
       0.0388168 -0.15016069 -0.1405777 0.22251573
0003d0 6d 74 9c bd 26 3a 79 3c c6 cb 48 3e 7e e7 b2 3d
       -0.07639394 0.015211618 0.19608983 0.0873556
0003e0 2c de f7 bd a1 5f c0 bd e7 58 b3 bd 0e 07 3c bd
       -0.12102923 -0.0939324 -0.08757191 -0.045905165
0003f0 a7 50 ab bd 57 e3 40 3e ea 25 38 3e b6 27 2c be
       -0.083649926 0.18836723 0.17983213 -0.16812024

bias_ih_l0 f4 [160]
000000 ad eb cc bd 9a c6 29 bd f5 74 32 3e 52 f3 73 3d
       -0.10005889 -0.041449167 0.17427428 0.05955822
000010 a7 f0 3d be 8d 64 dd bd 16 f7 e8 bd 9d cb f9 bb
       -0.18548833 -0.10810194 -0.11375253 -0.0076231495
000020 4c 20 2b 3d e0 9c 77 be d5 6a 5f be a3 23 c5 bd
       0.041778848 -0.24180937 -0.21818097 -0.09625938
000030 3a d9 79 bd 9d 23 74 bc e4 aa 37 bc 32 c7 4e be
       -0.06099818 -0.014901069 -0.011210177 -0.20193174
000040 73 3a c2 bd ed 42 b3 bd 87 c3 25 3d 79 b9 23 3d
       -0.094838046 -0.087529995 0.040469673 0.039971802
000050 75 6c 05 3e 33 7a 1b 3d d2 b9 08 bd cf 2f 34 3e
       0.13029654 0.037958335 -0.033380337 0.17596363
000060 86 bc c3 bd fd c5 4c be e0 7a 36 3d 54 b1 5f 3d
       -0.09557442 -0.19997402 0.044550776 0.054612473
000070 15 b9 90 3d 2e 9f b0 be dc a0 29 be df 99 82 bd
       0.070665516 -0.34496444 -0.16565269 -0.06377005
000080 66 6a 96 3d 02 ce d0 3d ea 6c 82 3d fd 63 81 bd
       0.07344513 0.10195543 0.0636843 -0.063178994
000090 04 05 9a 3d 55 84 a1 bd 6c ff 28 bd 3d 8a 85 3d
       0.07520488 -0.078865685 -0.041259214 0.065205075
0000a0 3d 6f 1d 3e c8 86 68 3e a7 17 57 3e dc ca 10 be
       0.15374465 0.22707665 0.21005116 -0.14139885
0000b0 fb e2 d8 bc b1 65 a2 3d 04 ec 47 3e be d4 7a 3e
       -0.02647542 0.07929552 0.19523627 0.24495217
0000c0 31 76 4f 3d 45 f1 79 3e 80 76 9e 3e 29 80 cb 3d
       0.050649825 0.24408443 0.30949783 0.09936554
0000d0 8a fc 51 bd cd 4c 9e 3c a8 0b 2a 3d ed 04 26 3d
       -0.05126623 0.01932373 0.041515023 0.04053204
0000e0 28 b3 5f bc 70 5d eb 3d e5 de b0 3d c1 f2 51 3e
       -0.013653554 0.11492431 0.08636264 0.2050276
0000f0 93 7e 0a be 9d 55 ed 3d 0a 19 a3 3b cd fc 8b 3e
       -0.13524847 0.11588595 0.00497735 0.2734131
000100 df 00 2b bc 67 ed 12 3d b8 c6 ea bc 4b 7d 73 3e
       -0.010437219 0.035870936 -0.02865921 0.23778264
000110 8e ec 42 3d b2 d6 2c 3e 1e f1 20 be a7 38 be bc
       0.047588877 0.16878775 -0.15716979 -0.023220373
000120 ef a0 be 3d 0a 73 85 3e ca 43 1d 3e e7 35 2a 3d
       0.093080394 0.2606433 0.1535789 0.04155531
000130 1a 8f 53 3b 31 cb 65 3d 2e 21 d4 bb 42 e1 3a 3e
       0.003228134 0.05610198 -0.006473682 0.18249992
000140 1b 8a b8 3b cc fd 6f bd 49 41 ab 3b 58 ce d9 bb
       0.005631698 -0.05859165 0.0052262885 -0.0066469125
000150 6f eb e3 3d 1f 41 86 bc 61 a1 90 3d 04 80 6a bd
       0.1112889 -0.016388474 0.070620306 -0.05725099
000160 8b 0c 02 bd 15 86 10 be bd b7 17 3e 65 60 61 bd
       -0.031750243 -0.14113648 0.14816184 -0.05502357
000170 45 af 3b 3d e7 83 e0 3c ec c2 d5 bd dc 95 f2 bb
       0.045821447 0.027406646 -0.10437569 -0.0074031185
000180 76 2c 1e 3e c7 c7 64 3d c8 8e fc 3b e8 ff a6 bd
       0.15446648 0.055854585 0.0077074505 -0.08154279
000190 30 ef 85 3d 05 3b 8a bd 3a 85 41 3e ee 0b b7 3d
       0.06539762 -0.06749538 0.18898478 0.08937822
0001a0 07 bd 95 3c 7d 94 56 bd 9f a7 90 3d 46 36 94 bd
       0.018278612 -0.052387703 0.07063221 -0.07236914
0001b0 94 f4 ba 3c 52 68 0e bd 41 76 8b 3c d4 d6 07 be
       0.022821702 -0.034767456 0.017024161 -0.13265544
0001c0 eb 33 54 3d 5d 5d 0a 3c b0 c6 53 3e 15 52 93 bd
       0.051807325 0.008445111 0.20681262 -0.0719339
0001d0 2b b7 40 3d bd 73 a8 3d 8b 2f 12 bd 0c ac d4 3d
       0.047049683 0.082252 -0.03568987 0.10384378
0001e0 ed 93 1b be e0 b5 51 3d 49 36 af 3b 16 02 14 3e
       -0.15193148 0.05119884 0.0053470475 0.1445392
0001f0 aa bb 3d 3e 00 fc 29 3e 94 5e c3 3d 24 9e 5c 3e
       0.1852862 0.16600037 0.09539524 0.21544701
000200 ec de 73 3d 6a 39 6e bc dc 38 88 3d 96 26 29 3e
       0.059538767 -0.014540056 0.0665147 0.16518626
000210 8b 1e 41 3e 8f 7a 3f bd 63 2e 9b bd 83 cc 48 3e
       0.18859307 -0.04674774 -0.07577207 0.19609265
000220 aa 54 6e 3e c9 01 73 3e f4 cc ed 3d 68 97 83 3d
       0.23274484 0.2373115 0.11611357 0.06425363
000230 4f 8b 90 3e a5 17 a9 bd d2 0d 01 3d 92 b0 c8 3c
       0.28231284 -0.08256463 0.03150732 0.024498258
000240 72 5e 43 3e 5d 66 01 3e 95 44 1b 3c 76 fb e8 3d
       0.19078997 0.12636705 0.0094768 0.11376087
000250 06 33 8b 3d 03 bc 49 3e 54 e2 22 3e c4 a4 48 3e
       0.06796841 0.19700627 0.1590665 0.19594103
000260 e9 61 a5 3d ac 78 5a bd 6c fb 1d bd 09 e9 36 3d
       0.080753155 -0.053337738 -0.038569853 0.044655833
000270 46 72 c0 3d 7d 8f 3f 3e 06 7f 39 3c 91 c5 88 3d
       0.09396796 0.1870708 0.011321789 0.06678308

bias_hh_l0 f4 [160]
000000 c6 85 b0 3d 5c b5 8b bd de 1e 2a 3e f0 cc 97 3c
       0.08619265 -0.06821701 0.16613337 0.018530339
000010 5f c9 eb bc 18 55 2d be fc 8d 84 be 4b 23 ed bd
       -0.028782545 -0.16926992 -0.25889575 -0.11578997
000020 48 fb b8 3d c5 1b af be 14 c1 28 be 0b 3c 04 bd
       0.09032303 -0.34200874 -0.16479903 -0.032283824
000030 df 44 5e bd ca 77 e7 3d 11 75 00 be 69 03 d0 bd
       -0.0542649 0.11302145 -0.12544657 -0.101569004
000040 4a 24 6b be 46 57 80 3d ba 4c a4 3d 96 5a 39 be
       -0.22963062 0.06266646 0.08022447 -0.18100962
000050 d1 cd a2 bd 9e 6e 04 3a ba cc ce bd cb f6 c0 3d
       -0.079494126 0.00050518836 -0.10097642 0.09422072
000060 49 89 83 bd ef ef 59 3d a0 63 18 3d db 34 c9 bd
       -0.064226694 0.053207334 0.037204385 -0.098245345
000070 60 60 c8 3d 90 87 74 be e4 d5 7e 3d 0c e6 68 3d
       0.09784007 -0.23879838 0.0622157 0.056860015
000080 ae d4 2b 3e 68 a8 e7 3c 8f 0f 46 3d 07 a1 88 3c
       0.1678035 0.028278545 0.04835468 0.016678346
000090 a5 d4 07 bd 67 1f 36 be 07 39 2f 3e a4 3c 1d bb
       -0.033161778 -0.17785417 0.17111598 -0.0023992443
0000a0 04 bd 0e 3e a2 b1 8f bb a1 db f2 3d 45 35 1b 3d
       0.13939291 -0.004385189 0.11858297 0.0378926
0000b0 11 d1 0f bd 6c 3e 48 3e ad bc 56 3e 8e 9c e0 3d
       -0.03511149 0.19555062 0.20970412 0.109673604
0000c0 74 5a 9a 3d 05 3b 87 3e 87 79 6c 3e 3a 27 1d 3e
       0.07536784 0.26412216 0.23093234 0.15346995
0000d0 19 6b 02 3e b1 d3 87 3c 93 9a 29 be d2 e6 0e 3d
       0.12736167 0.016580435 -0.16562872 0.034888096
0000e0 16 2b 97 3d 3c b3 8c 3e 0b df 0a 3e 15 58 05 3e
       0.07381265 0.27480495 0.13561647 0.13021882
0000f0 f3 1d 72 bd 8e 89 25 3d 26 bb 21 be 57 c9 1c 3c
       -0.059110593 0.040414385 -0.15794048 0.009569488
000100 4f ec 50 3e 79 7e 0c 3e 9d 15 05 bd 62 60 3c 3e
       0.20402645 0.1372012 -0.032491315 0.18396142
000110 9e 29 0f 3d 98 47 d7 3e 90 b0 bf 3d c2 7a ea 3d
       0.0349518 0.4204681 0.093598485 0.114491954
000120 71 21 94 b8 94 ea 4b 3d 82 75 ab 3e 72 bc 52 bb
       -7.063419e-05 0.049784258 0.3348809 -0.003215578
000130 7a ef 01 bd 86 41 00 3d c8 0c 98 3c f6 75 b9 3b
       -0.031722523 0.031312488 0.018560782 0.005659814
000140 e6 75 46 3d 63 25 de 3a 46 21 2c be 44 ab 8f 3d
       0.04845228 0.0016948398 -0.16809568 0.07015088
000150 f1 21 15 be f8 d2 ae 3d 25 c4 e2 bd d7 ae 60 3c
       -0.14563729 0.08536333 -0.11072568 0.01371356
000160 d0 2b 25 be 0b c8 00 3e 9f 56 8c bc 5b 9c 38 3e
       -0.16129994 0.1257631 -0.017131148 0.18028395
000170 cb 60 72 be 75 68 85 bd 80 1f 9b bc f3 2c 22 3e
       -0.23669736 -0.06514064 -0.018935919 0.1583746
000180 8d d8 a6 3d 3b 96 9a bd 1f 60 eb 3d d5 d2 14 3e
       0.081467725 -0.075481854 0.11492943 0.14533551
000190 25 0a 0d 3d 03 9d 45 bd cf 65 44 3e 73 60 a7 bc
       0.034433503 -0.04824544 0.19179462 -0.020431733
0001a0 1e 18 39 3d e5 d7 de bc 6c 8b 99 3d ab 28 98 bd
       0.045189016 -0.027202556 0.07497296 -0.07429632
0001b0 4a b0 25 3e a4 6f aa bd bb 76 84 bd 02 e0 0f 3e
       0.1618053 -0.08322075 -0.064679585 0.14050296
0001c0 ee 56 44 bd 2b be c0 bd 23 19 23 3c 54 ed 4d bd
       -0.047934465 -0.09411272 0.0099547235 -0.05027516
0001d0 6a c7 11 bd 4b 68 95 bd c8 ff da 3d 13 c9 13 be
       -0.035590567 -0.07295283 0.10693318 -0.14432172
0001e0 b6 69 2e 3d 63 27 18 3e 49 01 0d 3e 0b 9e 21 3e
       0.042581283 0.14858775 0.13770021 0.15782945
0001f0 36 cb a4 bd df b6 dd 3d 1d c3 22 3e 06 c9 85 3e
       -0.08046572 0.108258955 0.15894742 0.2612993
000200 5f f1 a3 bc 8a ea 1e 3e 62 de 97 3e d0 25 2f bc
       -0.020012556 0.15519157 0.29661852 -0.010690168
000210 78 41 44 3e 07 86 7b bd 67 3e 2f be 00 56 9a bd
       0.191656 -0.061407115 -0.17113648 -0.075359344
000220 2b 5c 3c 3e 4f 02 a4 3e 13 ac a7 3d c5 e0 e0 3d
       0.18394534 0.3203301 0.081871174 0.109803714
000230 87 ad f1 3d 39 52 8d bc b4 13 60 be ea a3 98 3d
       0.11800676 -0.01725112 -0.21882516 0.07453139
000240 74 53 5a 3e d5 64 02 bb 31 d4 6d 3d 50 51 f9 3d
       0.21320897 -0.0019896526 0.05806369 0.12173712
000250 04 44 1f 3e df b8 a5 3e f7 9c 1c bd 3e 72 76 3e
       0.1555329 0.32367608 -0.03823563 0.24067017
000260 ce 9f 1e 3e 9a f7 05 3e 7f 89 13 bd 0f 97 fa bd
       0.15490648 0.13082734 -0.0360198 -0.122358434
000270 ab c5 01 be d9 85 3e 3e 30 f1 4d 3e 4d 69 50 3e
       -0.1267306 0.18605746 0.20111537 0.20352669

weight f4 [1, 40]
000000 70 50 39 bd 56 2e 0a 3d 56 8c 02 bf 17 65 b5 bd
       -0.045242727 0.033735596 -0.50995386 -0.08857172
000010 6f d3 b5 3e 80 3f 37 3c 06 49 c9 3c 14 7a 0d 3d
       0.35512874 0.011184573 0.024570953 0.03454025
000020 cc 57 3f be 33 72 9d bd a9 7b 31 bc 91 ae 86 3d
       -0.18685836 -0.076877974 -0.010832706 0.06576265
000030 4d b1 8e be fd 13 08 3e ab 9a ef bd 9a 6e 48 bd
       -0.27869645 0.13288875 -0.116994224 -0.048933603
000040 67 47 f6 bc 2a b8 f5 3c ac b0 f4 bd 30 51 0e 3d
       -0.030063344 0.029995043 -0.1194776 0.034745395
000050 97 0a a6 3d 7e a9 67 bd eb ea 9f be 77 af 22 bd
       0.081074886 -0.056558125 -0.31233916 -0.039718118
000060 84 95 55 bd 38 b8 9d 3e 23 cc 6c be 9d e4 93 3d
       -0.052144542 0.3080461 -0.23124747 0.07221339
000070 00 9d da 3d 89 36 af bd 50 de 51 3d fa 71 26 3d
       0.106744766 -0.08555324 0.051237404 0.04063604
000080 e6 14 54 3d 26 7a a0 bc 18 f2 ea 3e 49 53 c6 3d
       0.051777743 -0.019589495 0.45887828 0.09683854
000090 80 fb b1 bd 32 d6 6d 3e 1e 68 cb bd b3 20 62 bd
       -0.08690548 0.2322624 -0.09931968 -0.055206966

weight f4 [1, 40]
000000 17 71 d3 be ce 2f 52 3f 01 0c d5 be 67 53 53 bf
       -0.41297218 0.82104194 -0.4161072 -0.82549137
000010 c2 c1 2c 3f 4a 31 ca be eb fa 01 bf cd dc f2 3d
       0.6748315 -0.3949073 -0.50773495 0.11858521
000020 99 b5 99 be 78 86 ca 3e f8 e3 46 3e 55 38 c2 3e
       -0.3002136 0.39555717 0.194229 0.37933603
000030 a2 e3 18 3f 34 19 03 bf d2 86 fb be 0b de 2b 3f
       0.5972234 -0.5121033 -0.49126297 0.67135686
000040 c9 98 42 be 85 a5 57 3e 41 d9 26 be 5e a1 ef 3e
       -0.19003595 0.21059234 -0.16293813 0.468028
000050 5f 99 35 bf 60 1e 1e be 3d 5a 35 3f d6 d6 e8 3e
       -0.7093715 -0.15441275 0.7084082 0.45476407
000060 bc 42 08 3f 79 42 98 3e de 35 0e bf 68 4b 6a be
       0.5322683 0.29738215 -0.55550945 -0.22880328
000070 aa f8 cd 3e af f4 2d 3f 2e d3 04 bf d0 eb d2 be
       0.40228778 0.6795148 -0.51884735 -0.41195536
000080 65 f1 cc bd 33 37 e0 be 75 66 05 3e 06 96 fa 3e
       -0.1000698 -0.43792114 0.13027366 0.48942584
000090 e9 cc 3d bf 64 be 18 bf 2e 6e 6f 3e 21 50 2a 3f
       -0.74140793 -0.59665513 0.23381874 0.66528517
